checkpoint_critic2.pth (torch_old, 118095 bytes, 9 tensors)

fcs1.weight f4 [150, 33]
0	0xbce94e27	-0.028479649
1	0xbcf22c8f	-0.029562263
2	0x3c908c74	0.017645098
3	0xbe09f9a1	-0.13474132
4	0x3e0879d5	0.13327725
5	0xbe0d8444	-0.13819987
6	0x3e862f71	0.2620807
7	0xbdb19c67	-0.086724095
8	0xbcac4dd1	-0.0210332
9	0x3e9e2c62	0.30893236
10	0x3e0ec58b	0.13942544
11	0x3e18e6d1	0.149318
12	0x3d4dbde9	0.05022994
13	0x3cdc3e58	0.026885197
14	0x3ef3bf3e	0.47606844
15	0xbcb102c0	-0.021607757
16	0xbd6471ae	-0.055772476
17	0xbcfb5e7c	-0.030684702
18	0xbe2d5bf6	-0.16929612
19	0xbc87946a	-0.016550262
20	0xbc3c5af3	-0.011496293
21	0x3d00238a	0.031283893
22	0xbbf36f24	-0.0074290205
23	0x3d38ba6f	0.045099672
24	0x3e5f04cf	0.21779178
25	0xbceb627b	-0.028733483
26	0xbd92d7cc	-0.07170066
27	0xbd05778b	-0.03258471
28	0xbd1600f1	-0.03662199
29	0x3c498800	0.012300491
30	0xbe1637ea	-0.14669767
31	0x3d550d04	0.052014366
32	0xbe8ff9f7	-0.28120396
33	0x3d7b256b	0.06131498
34	0x3e19317b	0.14960282
35	0x3d24cf86	0.040236972
36	0x3dc235d0	0.0948292
37	0xbde21415	-0.110389866
38	0xbe28fecb	-0.16503446
39	0xbc412389	-0.011788257
40	0xbd131b67	-0.035914805
41	0xbdd5f30e	-0.1044675
42	0x3dc5dada	0.09660883
43	0x3e7e86e5	0.24856146
44	0x3da54a26	0.08070783
45	0xbdc7e6ef	-0.09760844
46	0x3e4fc463	0.2028976
47	0x3e0dc26f	0.13843702
48	0xbe11da59	-0.1424345
49	0xbe0a8e70	-0.13530898
50	0xbec2ca70	-0.38045073
51	0x3e17c974	0.14822942
52	0x3e00d151	0.12579848
53	0x3e4d995f	0.20078038
54	0xbdf34926	-0.11879186
55	0x3dae7b44	0.08519605
56	0x3cbd40df	0.023102222
57	0xbc0bf84a	-0.008543083
58	0xbc893a18	-0.016751334
59	0xbd196652	-0.037451096
60	0xbd1a0e60	-0.037611365
61	0x3dbf0afc	0.09328267
62	0xbe1616da	-0.14657155
63	0xbd84c087	-0.06482034
64	0xbe009dba	-0.12560168
65	0x3e819174	0.25306284
66	0x3e57ee6d	0.21087046
67	0x3c268568	0.0101636425
68	0x3e09c01b	0.13452189
69	0x3c8d6171	0.017258378
70	0xbe1e95c7	-0.15486823
71	0x3bc464d6	0.005993466
72	0xbd9e668c	-0.07734403
73	0x3deac283	0.114628814
74	0xbda10714	-0.07862678
75	0xbe06d095	-0.13165505
76	0xbc0c274d	-0.008554292
77	0x3bc4efe5	0.006010043
78	0xbd107231	-0.03526515
79	0xbe4186fe	-0.18899152
80	0xbc2969e2	-0.010340186
81	0xbe28ebf4	-0.16496259
82	0x3dcc4ef5	0.09975997
83	0x3c8f8675	0.017520169
84	0x3e55e6f5	0.20888884
85	0xbe0a80bb	-0.1352567
86	0xbd32bfbb	-0.04363988
87	0xbdaa1f34	-0.08306733
88	0xbdcdc292	-0.10046877
89	0xbe6eee38	-0.2333306
90	0x3ce1635d	0.0275132
91	0xbe364383	-0.17799191
92	0xbe43579c	-0.19076389
93	0x3d23639b	0.039889913
94	0xbcceb5a1	-0.025233092
95	0xbca0ce28	-0.019629553
96	0x3e1bfb98	0.15232694
97	0x3e08324a	0.13300434
98	0xbf24b4ec	-0.64338565
99	0xbe157ec4	-0.14599138
100	0xbe3e064e	-0.18557093
101	0xbd7110b3	-0.058853816
102	0x3d5037d9	0.05083451
103	0xbbe8bebf	-0.007102817
104	0xbe010c26	-0.1260229
105	0xbd12e00b	-0.035858195
106	0xbc520325	-0.0128181325
107	0xbdbffeb3	-0.09374752
108	0x3d23324b	0.039842885
109	0x3c32d484	0.0109149255
110	0xbdcf0fd4	-0.10110441
111	0xbe18d0b4	-0.14923364
112	0xbd5105b7	-0.05103084
113	0x3e8cd5e6	0.27506942
114	0x3d8fbb45	0.07018141
115	0x3d0df866	0.03466072
116	0xbda74218	-0.08166903
117	0xbdfc5ca5	-0.12322358
118	0x3d4d89a9	0.05018011
119	0xbe3e7865	-0.18600614
120	0x3d892245	0.066959895
121	0xbe247c41	-0.16063024
122	0xba661576	-0.00087770016
123	0x3e295e9a	0.16539994
124	0x3e09d16f	0.13458799
125	0xbd95d42d	-0.0731586
126	0xbe1b86fa	-0.15188208
127	0xbdc7981a	-0.09745808
128	0x3e12ec28	0.14347899
129	0xbbb6a23c	-0.005573539
130	0x3c987c88	0.018614069
131	0x3e6d8471	0.23195054
132	0xbe5f90a1	-0.21832515
133	0x3de82842	0.113358036
134	0x3c108b87	0.008822328
135	0xbe638a46	-0.22220716
136	0xbc445481	-0.011983038
137	0x3c4e4dfc	0.012591835
138	0xbe6fc91e	-0.23416564
139	0x3c0ea515	0.008706351
140	0xbd9f75be	-0.077861294
141	0x3dbfe2e9	0.093694516
142	0xbdb49d68	-0.08819085
143	0x3c74dad9	0.0149447555
144	0x3c4d01ab	0.012512605
145	0x3dc6c5b8	0.097056806
146	0x3cf0b882	0.029384855
147	0x3cad9174	0.021187522
148	0x3e36f4ac	0.17866772
149	0x3e2e2c48	0.1700908
150	0x3e90b7db	0.2826527
151	0xbca4f4a4	-0.020136185
152	0x3c23ef1b	0.010005738
153	0x3c8d51d4	0.017250933
154	0x3d3062f3	0.043063115
155	0x3d0b2ad9	0.03397641
156	0xbb1ec55a	-0.0024226517
157	0xbbe374b3	-0.006941402
158	0xbcda77e1	-0.02666849
159	0xbe2da8ce	-0.16958925
160	0xbdaac26e	-0.08337866
161	0xbdd39580	-0.10331249
162	0xbdb84e82	-0.08999349
163	0x3e1097a8	0.14120352
164	0xbf6560b0	-0.8960066
165	0xbc655052	-0.013996201
166	0x3d9efb87	0.07762819
167	0x3bbbfef5	0.0057371804
168	0x3e369a7c	0.17832369
169	0xbd2e0073	-0.042480897
170	0xbd912f3a	-0.07089086
171	0xb8fc68cd	-0.00012035817
172	0xbc0b6d53	-0.008509952
173	0xbde55e2b	-0.11199602
174	0xbd606b7d	-0.05479001
175	0x3e227993	0.1586669
176	0xbcc9c157	-0.024628324
177	0x3cc14549	0.023592608
178	0x3dfd7d71	0.12377442
179	0xbe8743ee	-0.26419014
180	0x3db6d93b	0.08928152
181	0xbcee6220	-0.029099524
182	0xbe0c63b9	-0.13709916
183	0xbc61858c	-0.01376475
184	0xbba4b9ac	-0.0050270166
185	0xbc94b8c5	-0.018154511
186	0xbb9aa430	-0.0047192797
187	0x3cda6040	0.026657224
188	0x3de972ce	0.113988504
189	0xbddfbd59	-0.10924787
190	0x3dcfa1e1	0.10138298
191	0xbd5fab0e	-0.05460649
192	0xbd794a29	-0.06086174
193	0xbc44af16	-0.012004634
194	0xbb8ca7e0	-0.004292473
195	0x3d4d2bff	0.050090786
196	0xbe13c2c9	-0.14429773
197	0x3e373a43	0.17893319
198	0xbd1bda1c	-0.038049802
199	0x3daed2c4	0.08536294
200	0xbcf7ccc1	-0.030249001
201	0xbd01245c	-0.031528816
202	0x3be63cd3	0.007026294
203	0x3e143865	0.14474638
204	0x3e7ec4e7	0.248798
205	0xbe4690b3	-0.19391136
206	0xbd2da7eb	-0.042396467
207	0x3dbf764b	0.093487345
208	0x3d8fc178	0.07019323
209	0xbd6459e4	-0.05574979
210	0xbd4e4989	-0.050363097
211	0x3e4db33a	0.20087901
212	0x3d8fe10a	0.07025345
213	0xbe7507e6	-0.23928794
214	0x3e0ba7c8	0.13638222
215	0xbcf85964	-0.030316062
216	0xbd2e57ba	-0.04256413
217	0xbdfe5feb	-0.12420639
218	0xbd2610ab	-0.04054324
219	0x3d8ef09e	0.06979488
220	0xbd6dde93	-0.05807359
221	0x3dc19fb0	0.09454286
222	0x3d8959c7	0.06706577
223	0x3ca02cbf	0.019552587
224	0xbd4227bc	-0.047401175
225	0xbe303da4	-0.17211014
226	0x3e415248	0.18879044
227	0x3c8e0a30	0.017338842
228	0xbd7a5978	-0.06112048
229	0x3cc1ec40	0.023672223
230	0x3d359558	0.04433188
231	0xbe3394c6	-0.17537221
232	0x3df843d3	0.121223114
233	0xbe16b52a	-0.14717546
234	0x3d253993	0.04033811
235	0x3e5cdfaa	0.21569696
236	0x3bee4ef1	0.007272594
237	0xbca7ce56	-0.02048413
238	0x3c5a1f5d	0.013313142
239	0xbc1f37ec	-0.009717923
240	0x3db8fe4f	0.090328805
241	0x3e0abe65	0.13549192
242	0x3e06543a	0.13118067
243	0xbabcb5b1	-0.001439741
244	0x3e2f74d5	0.17134412
245	0xbdfae26d	-0.122502185
246	0xbcea8994	-0.028630055
247	0x3bb1219e	0.005405619
248	0xbe43f13b	-0.19134991
249	0xbd824aaa	-0.06361897
250	0x3e0558c4	0.13022143
251	0xbe61360b	-0.21993272
252	0xbdd0f4d6	-0.10202949
253	0x3df7fc9c	0.12108728
254	0xbe21a738	-0.15786445
255	0xbb95aacc	-0.0045674797

fcs1.bias f4 [150]
0	0x3dd71b34	0.105032355
1	0x3dd3fce5	0.1035097
2	0x3dd29dda	0.10284014
3	0x3dc88e7d	0.097928025
4	0x3dd1a326	0.10236196
5	0x3dc5ad4a	0.09652193
6	0x3dc13f3f	0.09435891
7	0x3dcd000e	0.10009776
8	0x3dc7c34b	0.09754046
9	0x3dd8f691	0.10593904
10	0x3dcd485b	0.10023566
11	0x3dc73ef7	0.097288065
12	0x3dcd3a3f	0.10020875
13	0x3dcfae08	0.10140616
14	0x3dcc4da7	0.099757485
15	0x3db79b15	0.089651264
16	0x3dcb10af	0.099152915
17	0x3da9e22f	0.08295094
18	0x3dcec606	0.10096364
19	0x3dcc1334	0.099646
20	0x3dc8b0dc	0.09799358
21	0x3dd06b6b	0.10176738
22	0x3dcd6578	0.10029119
23	0x3dcda53f	0.10041284
24	0x3dcd476e	0.1002339
25	0x3dd9758c	0.106181234
26	0x3dc7c5ee	0.09754549
27	0x3dcae60f	0.099071614
28	0x3dcf9ee3	0.10137727
29	0x3dcecfcb	0.10098227
30	0x3dcba5e3	0.0994375
31	0x3dc7c55e	0.09754442
32	0x3dc3df9f	0.09564137
33	0x3dcb3e54	0.099239975
34	0x3ddfc90f	0.10927021
35	0x3dd0c432	0.10193671
36	0x3dd1fc84	0.10253242
37	0x3dd16712	0.10224737
38	0x3dd7cb80	0.105368614
39	0x3dd0852d	0.10181651
40	0x3dd13056	0.102142975
41	0x3dd85ac3	0.105641864
42	0x3dd8ac4f	0.1057974
43	0x3dd17eb0	0.10229242
44	0x3dc8ffed	0.09814439
45	0x3dcd509e	0.10025142
46	0x3dcac2b1	0.09900416
47	0x3dc4b718	0.09605235
48	0x3dc70ac5	0.09718851
49	0x3dd3c4bf	0.10340261
50	0x3dcd697c	0.10029885
51	0x3dcb11ab	0.09915479
52	0x3dc350b6	0.09536879
53	0x3dd5783d	0.10423324
54	0x3de0fcb5	0.109857
55	0x3dc78a1e	0.09743141
56	0x3dc8c9ab	0.0980409
57	0x3dcd7f2c	0.10034022
58	0x3dca5ef5	0.09881393
59	0x3dd7c434	0.1053547
60	0x3ddbaa3c	0.10725829
61	0x3dc9dd11	0.09856618
62	0x3de35235	0.11099664
63	0x3dd191f8	0.102329195
64	0x3dc5f24b	0.09665354
65	0x3dcd2ca5	0.10018281
66	0x3dd23b95	0.102652706
67	0x3dcc86b8	0.09986633
68	0x3dcaaa6f	0.09895789
69	0x3dd506f8	0.1040172
70	0x3dcd1878	0.10014433
71	0x3dd0b497	0.10190695
72	0x3dc41328	0.09573966
73	0x3dcfddb1	0.10149706
74	0x3dced54e	0.100992784
75	0x3dbe15c6	0.09281497
76	0x3dd00621	0.10157419
77	0x3dcf707b	0.10128876
78	0x3dca8fa0	0.098906755
79	0x3dc9c7c3	0.09852555
80	0x3dc80dc8	0.097682536
81	0x3dd44581	0.10364819
82	0x3dc9cb37	0.09853213
83	0x3dc67fc2	0.096923366
84	0x3dc82f0b	0.09774598
85	0x3dc66b7a	0.09688468
86	0x3dba9df4	0.091121584
87	0x3dd46b53	0.10372033
88	0x3dd41d88	0.10357195
89	0x3dcdce4a	0.10049112
90	0x3dd0c35d	0.101935126
91	0x3da52281	0.08063222
92	0x3dce9804	0.100875884
93	0x3dc6ef66	0.097136304
94	0x3dc7f7e8	0.09764081
95	0x3dd1d37b	0.10245415
96	0x3dccfb03	0.10008814
97	0x3df3478f	0.11878883
98	0x3dca9942	0.09892513
99	0x3dd2c1f4	0.102909
100	0x3dc5ac24	0.09651974
101	0x3dc076c2	0.09397651
102	0x3dd33bc1	0.103141315
103	0x3dc92056	0.09820621
104	0x3dcff1f9	0.101535745
105	0x3db6a771	0.08918656
106	0x3dcbeb2d	0.099569656
107	0x3dce11b2	0.10061969
108	0x3ddc078a	0.107436255
109	0x3dccb2e9	0.09995062
110	0x3dd1959b	0.10233613
111	0x3dcb46d7	0.09925621
112	0x3dce7d9b	0.10082551
113	0x3da0fd3b	0.078608
114	0x3dd439ec	0.1036261
115	0x3dd555cf	0.10416757
116	0x3dc870c8	0.09787136
117	0x3dc5e24d	0.09662304
118	0x3dcec388	0.100958884
119	0x3dda1762	0.10648991
120	0x3dcf3d72	0.10119142
121	0x3dc22620	0.09479928
122	0x3dcf512b	0.101229034
123	0x3ddc2b28	0.10750419
124	0x3dde2e40	0.10848665
125	0x3dce41a2	0.10071112
126	0x3dc3d422	0.095619455
127	0x3dc0942f	0.09403264
128	0x3db8d596	0.09025113
129	0x3dcb7c22	0.09935786
130	0x3dca64e1	0.098825224
131	0x3dd16211	0.10223783
132	0x3de12161	0.10992695
133	0x3dca359d	0.09873507
134	0x3dc5dcbc	0.09661242
135	0x3dd2c265	0.10290984
136	0x3dce9461	0.10086895
137	0x3dd80798	0.105483234
138	0x3dcb960a	0.09940727
139	0x3dcd8ece	0.100370035
140	0x3dc8a5a7	0.09797221
141	0x3dd99355	0.106238045
142	0x3dcd546d	0.100258686
143	0x3dc763ca	0.0973583
144	0x3dcb2cf2	0.09920682
145	0x3dd057ab	0.10172971
146	0x3dbbe0a7	0.091737084
147	0x3dcb2c9a	0.099206164
148	0x3dcb3bea	0.09923537
149	0x3dd40108	0.10351759

bn1.weight f4 [150]
0	0x3eade3b7	0.33962795
1	0x3ec639a8	0.38715863
2	0x3ed466d9	0.41484717
3	0x3e9abcd5	0.30222192
4	0x3e3b8b2f	0.18314813
5	0x3eb7ebd4	0.3592211
6	0x3ef2c060	0.47412395
7	0x3e720d7b	0.23637955
8	0x3f42ca2e	0.7608975
9	0x3f04eb9f	0.5192203
10	0x3f124b89	0.5714651
11	0x3f08b588	0.53401995
12	0x3ebaf44e	0.36514515
13	0x3f123e49	0.5712629
14	0x3e3c2cfc	0.18376535
15	0x3f18d2b9	0.5969654
16	0x3ec84f4d	0.39123002
17	0x3f4c7d39	0.79878575
18	0x3e9884d5	0.29788843
19	0x3e87a57c	0.26493442
20	0x3eb45220	0.35218906
21	0x3eacce43	0.33751115
22	0x3eb330e0	0.34998226
23	0xbd505376	-0.050860845
24	0x3e48990a	0.1958963
25	0x3f1c6deb	0.6110522
26	0x3f27029e	0.6523837
27	0x3c3494ab	0.011021773
28	0x3ea3d449	0.31997898
29	0x3ef6b119	0.4818199
30	0x3ee19074	0.4405552
31	0x3f002d6e	0.5006932
32	0x3e1e5840	0.15463352
33	0x3ede7467	0.43448183
34	0x3f1d2826	0.61389387
35	0x3e930944	0.28718007
36	0x3f36c14f	0.71388716
37	0x3f05712e	0.52125823
38	0x3f54d7b8	0.8314166
39	0x3ebc70d7	0.3680484
40	0x3ed3fde9	0.41404656
41	0x3e936c30	0.28793478
42	0x3ed16388	0.4089625
43	0x3f16d2eb	0.58915585
44	0x3e927265	0.286029
45	0x3ecfe7a8	0.40606427
46	0x3e9eb35f	0.30996224
47	0x3ecb7a9e	0.39741987
48	0x3e0d9dd1	0.13829733
49	0x3f20863e	0.6270484
50	0x3ea2a9b8	0.3177011
51	0x3e474bab	0.19462459
52	0x3e69688b	0.22793786
53	0x3f130646	0.5743145
54	0x3f3bcfab	0.7336375
55	0x3ed95460	0.42447186
56	0x3e584f58	0.21124017
57	0x3e83af5d	0.2571973
58	0x3e8864a6	0.2663929
59	0x3eb0b11f	0.34510133
60	0x3eeaf540	0.45890236
61	0x3ecbcb28	0.39803433
62	0x3f268e77	0.65061134
63	0x3ed41a11	0.41426137
64	0x3ecfe5e9	0.40605095
65	0x3eb2e14d	0.34937516
66	0x3e16cc8f	0.1472647
67	0x3eb5bd79	0.3549612
68	0x3eeddb2d	0.4645628
69	0x3e671d21	0.22569706
70	0x3e95e498	0.29275966
71	0x3e8ce434	0.27517855
72	0x3ed373ec	0.4129938
73	0x3e33f18c	0.17572612
74	0x3edafe10	0.4277196
75	0x3f3dc4e1	0.7412854
76	0x3e26121b	0.16217844
77	0x3f0df245	0.554478
78	0x3e10b2bc	0.14130682
79	0x3ee0d528	0.43912625
80	0x3f07df9e	0.5307559
81	0x3ea903ec	0.33010805
82	0x3ed3bab5	0.41353384
83	0x3e367182	0.17816737
84	0x3e37a8ed	0.17935534
85	0x3ed7c4c9	0.42142323
86	0x3e36ff4f	0.1787083
87	0x3e900b01	0.28133395
88	0x3f03f7dd	0.51550084
89	0x3f2cb5f1	0.6746512
90	0x3f224ec3	0.6340143
91	0x3ef7a7ab	0.48370108
92	0x3f0721f5	0.5278619
93	0x3ef1fa42	0.47261244
94	0x3f0b2d7f	0.54366297
95	0x3eecd6db	0.46257672
96	0x3dca8b0a	0.09889801
97	0x3eea9a3c	0.45820796
98	0x3ecdf1ba	0.40223485
99	0x3ee25573	0.44205818
100	0x3f0d3f89	0.5517507
101	0x3f20dad4	0.62833905
102	0x3ec50414	0.38479674
103	0x3f14a1a1	0.58059126
104	0x3f00efd8	0.5036597
105	0x3f02a6ff	0.51036066
106	0xbbee99f4	-0.0072815362
107	0x3eed3c5f	0.46335122
108	0x3ec03bb8	0.37545562
109	0x3f012601	0.50448614
110	0x3f0c8847	0.5489544
111	0x3e968f5f	0.29406258
112	0x3ea5e856	0.3240382
113	0x3f85d6de	1.0456197
114	0x3e886da4	0.2664615
115	0x3e818c44	0.25302327
116	0x3e19f847	0.15036117
117	0x3e3d5717	0.18490253
118	0x3ece6b93	0.40316448
119	0x3f6ed3f2	0.9329215
120	0x3e3d9762	0.18514779
121	0x3f06ec7b	0.5270459
122	0x3ef109e4	0.47077858
123	0x3f1caa86	0.611977
124	0x3eaacfd2	0.3336168
125	0x3f029516	0.5100874
126	0x3ec42018	0.38305736
127	0x3f720255	0.9453481
128	0x3f300b1c	0.6876695
129	0x3f23da5d	0.6400507
130	0x3ef84308	0.4848864
131	0x3ea3ab90	0.3196683
132	0x3e44f3a4	0.19233567
133	0x3e81987e	0.25311655
134	0x3e4873e1	0.19575454
135	0x3e7034da	0.23457661
136	0x3dd01c96	0.10161702
137	0x3f1902bb	0.5976979
138	0x3ee2227b	0.44166932
139	0x3e7a9cee	0.24473926
140	0x3ec8b8d3	0.3920351
141	0x3f484d75	0.7824319
142	0x3ed23b0e	0.4106068
143	0x3f0caed2	0.54954255
144	0x3f105707	0.56382793
145	0x3e8c611f	0.27417848
146	0x3f5a476f	0.8526525
147	0x3e8709b8	0.26374602
148	0x3e6dde5a	0.23229352
149	0x3f673718	0.9031844

bn1.bias f4 [150]
0	0xbe914229	-0.2837079
1	0xbe5e64b0	-0.21718097
2	0x3e65ad8d	0.22429486
3	0xbdc1c2c3	-0.09460976
4	0xbdceb36c	-0.10092816
5	0x3dbb71d4	0.0915257
6	0xbe0c343a	-0.13691798
7	0x3ca6ec96	0.020376485
8	0x3e0066a3	0.12539153
9	0xbdccd996	-0.10002439
10	0xbe2fdc4f	-0.17173885
11	0xbdb12ed6	-0.08651511
12	0x3b1ac4cb	0.0023615833
13	0xbd62b428	-0.05534759
14	0x3b0e4734	0.002170992
15	0x3db6c28c	0.089238256
16	0xbdc1bc8d	-0.09459791
17	0x3dcebd5a	0.1009471
18	0xbd09f242	-0.0336783
19	0xbcaa6085	-0.020797977
20	0xbe8a7897	-0.27045128
21	0x3c48a359	0.012245976
22	0xbdb31bed	-0.08745561
23	0xbdf5eb3d	-0.12007759
24	0xbd5207bf	-0.05127692
25	0xbd22d24c	-0.039751336
26	0x3e050e7d	0.12993808
27	0x3e3c314b	0.18378179
28	0xbd18d8f1	-0.037316266
29	0xbe593803	-0.21212773
30	0xbda72a3b	-0.08162352
31	0xbeba1aaf	-0.36348483
32	0xbcc8cf1c	-0.02451282
33	0xbddaf54d	-0.10691319
34	0x3e7df2f8	0.24799716
35	0xbcdd1f4f	-0.026992468
36	0xbe7ddc92	-0.24791172
37	0xbe1000a3	-0.14062743
38	0xbd653d0e	-0.05596643
39	0xbe29b0e9	-0.16571392
40	0xbe0fef2c	-0.1405608
41	0xbe32249f	-0.17396782
42	0x3d843e7d	0.06457231
43	0xbd5c163a	-0.053732134
44	0xbdcf6d44	-0.10128263
45	0xbe54b081	-0.20770456
46	0x3e59ab27	0.21256696
47	0x3bd18584	0.00639409
48	0x3d809646	0.062786624
49	0xbe0e64b8	-0.13905609
50	0xbccb917f	-0.024849651
51	0x3e06f899	0.1318077
52	0x3dbb5851	0.091477044
53	0xbd502db0	-0.05082482
54	0xbd7931f6	-0.060838662
55	0xbcfdcb63	-0.030980771
56	0x3c583fdc	0.013198819
57	0x3e0b8729	0.13625778
58	0xbc8dba5c	-0.017300777
59	0xbead8a3f	-0.33894536
60	0x3da76c8d	0.08175001
61	0xbd6f3404	-0.058399215
62	0xbdfb35e0	-0.12266135
63	0xbe274a2f	-0.16336893
64	0xbe1f5b6c	-0.15562218
65	0x3bfa2f53	0.007635036
66	0x3e3f4a81	0.18680765
67	0xbcdf57bc	-0.027263515
68	0xbe0fff40	-0.14062214
69	0x3d48fa76	0.049066983
70	0x3d6f6558	0.05844626
71	0xbd808143	-0.06274655
72	0xbdcda589	-0.10041339
73	0x3d594311	0.053042475
74	0xbd3cb91c	-0.04607497
75	0xbe945db0	-0.28977728
76	0x3dc9122d	0.0981792
77	0xbe2db21f	-0.16962479
78	0x3d1cc3d8	0.03827271
79	0xbe3c0a01	-0.18363191
80	0xbc8d1df7	-0.017226202
81	0xbc70865f	-0.014680474
82	0xbea802bb	-0.32814583
83	0x3e8e8d5e	0.2784223
84	0x3b34a203	0.0027562387
85	0xbe2d4cb0	-0.16923785
86	0x3ddf7941	0.10911799
87	0xbdb21eef	-0.08697306
88	0xbcac7b3d	-0.021054858
89	0xbe860ba2	-0.2618075
90	0x3d99486d	0.07484517
91	0xbd172b4a	-0.036906518
92	0xbe91d03d	-0.28479186
93	0xbd1ad455	-0.03780015
94	0xbe4261d1	-0.18982626
95	0xbe4da267	-0.20081483
96	0x3e0902d9	0.13379993
97	0x3d39afbf	0.04533362
98	0xbe0c4f11	-0.13702036
99	0xbd37be3b	-0.044859152
100	0xbe61baf6	-0.22043976
101	0xbead402a	-0.33838016
102	0x3d4fd40b	0.05073933
103	0xbe3570cc	-0.1771881
104	0xbdd52d13	-0.10408988
105	0xbe260664	-0.16213375
106	0x3e35f539	0.17769326
107	0x3d1370f9	0.03599641
108	0x3d2bbf31	0.04193038
109	0xbe1d0485	-0.15333755
110	0xbe8c4fe7	-0.2740471
111	0x3db1246e	0.086495265
112	0xbcca217a	-0.024674166
113	0x3d6e63c3	0.05820061
114	0x3da7e4ab	0.08197912
115	0xbdf57c75	-0.11986629
116	0xbd5f7fc6	-0.054565214
117	0x3c30644a	0.010766098
118	0xbc52df35	-0.0128705995
119	0xbd623bf8	-0.055232972
120	0xbdc72b1b	-0.097250186
121	0xbd59c54b	-0.05316667
122	0xbdf2baa1	-0.11852003
123	0xbd7f6540	-0.06235242
124	0xbca36848	-0.019947186
125	0xbdcb16f0	-0.09916484
126	0xbdedb17f	-0.1160612
127	0x3e169dcb	0.1470863
128	0xbd08f544	-0.03343703
129	0xbdbcf316	-0.092260525
130	0xbe8b1efa	-0.2717207
131	0xbd22443b	-0.03961585
132	0xbdacadf2	-0.08431615
133	0x3d892f1d	0.06698439
134	0xbdea42da	-0.11438532
135	0x3d5abd62	0.053403266
136	0x3daf81fc	0.085697144
137	0xbdf3cd51	-0.11904395
138	0xbe66b011	-0.22528102
139	0xbe07a7ac	-0.13247555
140	0x3e41d3d4	0.18928462
141	0x3d810455	0.062996544
142	0xbd92d49f	-0.071694605
143	0xbe726253	-0.2367032
144	0x3d6bb4ec	0.057545587
145	0xbc4764f6	-0.012170067
146	0x3d2ec0ce	0.04266434
147	0xbd5854c4	-0.052815214
148	0xbddb46b0	-0.10706842
149	0xbd879a3f	-0.06621217

bn1.running_mean f4 [150]
0	0xbfc20fd4	-1.516108
1	0xbf16c512	-0.58894455
2	0x3e9986d2	0.29985672
3	0xbe0b622e	-0.13611671
4	0xbef5caf7	-0.48006412
5	0x3f666a8d	0.90006334
6	0xbe42274d	-0.18960305
7	0xbe06c542	-0.13161185
8	0xbe97fdb6	-0.29685754
9	0x3e76d620	0.2410512
10	0x3ef6abb7	0.48177883
11	0x3ef0821f	0.46974275
12	0x3f412428	0.75445795
13	0x3d0da660	0.034582496
14	0x3ed8f1fc	0.4237212
15	0x3ed0e3d9	0.40798834
16	0x3fc0b644	1.5055623
17	0x3e520270	0.20508742
18	0x3fa61e5b	1.2978014
19	0x3ea535b5	0.32267538
20	0xbf2982a3	-0.6621496
21	0x3f50db76	0.8158487
22	0x3ec5aa18	0.38606334
23	0xbe85c555	-0.26127115
24	0xbf27ff2d	-0.6562374
25	0x3dca1e3a	0.098690465
26	0x3f10bce4	0.56538224
27	0x3f4e16a5	0.805033
28	0x3f6d2d50	0.92647266
29	0x3e541c4e	0.20713922
30	0xbd8bb92f	-0.0682243
31	0xbe5bed6d	-0.2147729
32	0xbf9be30b	-1.2178663
33	0x3e754a83	0.23954205
34	0x3e09cae9	0.1345631
35	0x3e4d0fcf	0.20025562
36	0x3df29770	0.11845291
37	0x3f061c3a	0.5238682
38	0xbd324b31	-0.04352874
39	0xbfa00b35	-1.250342
40	0xbec6dfd4	-0.38842642
41	0xbf0ca24b	-0.5493514
42	0xbecbe672	-0.39824253
43	0x3ecde39f	0.40212724
44	0xbe88c909	-0.26715878
45	0xbde27f65	-0.11059455
46	0x3f41375b	0.7547509
47	0x3d0df063	0.03465308
48	0x3f42b2cb	0.76054066
49	0xbdf185d3	-0.11793103
50	0xbebef93a	-0.3729952
51	0x3f3d28ad	0.7389019
52	0x3eaf8424	0.34280503
53	0x3f91ad64	1.138104
54	0xbcc0eced	-0.023550475
55	0x3f19383e	0.59851444
56	0xbf28949c	-0.6585176
57	0x3e2ca98f	0.16861556
58	0x3ee0cd0d	0.4390644
59	0xbf66bd0f	-0.9013223
60	0x3ee26b72	0.442226
61	0xbe506268	-0.20350039
62	0xbeaee553	-0.34159335
63	0x3f7787ed	0.9669178
64	0xbe864b5a	-0.26229364
65	0xbe19039c	-0.14942783
66	0x3f6846bf	0.9073295
67	0xbd74eb33	-0.059794616
68	0xbe7bfc3b	-0.24607937
69	0xbdb0495b	-0.086077414
70	0x3e959793	0.29217204
71	0x3f26f38a	0.6521536
72	0x3e56e4d7	0.20985733
73	0xbe8781fe	-0.26466364
74	0xbd602c3e	-0.054729693
75	0x3d551d7d	0.052030075
76	0x3e9d71e9	0.3075097
77	0x3e96aa5a	0.29426843
78	0x3ebc9c0b	0.368378
79	0xbd97ab75	-0.0740575
80	0xbf22159f	-0.6331424
81	0xbbbf26ee	-0.005833498
82	0xbe8d4a38	-0.27595687
83	0xbf542d82	-0.8288194
84	0xbf426e3c	-0.75949454
85	0x3e879e94	0.26488173
86	0x3f37a299	0.7173248
87	0xbec38a21	-0.38191321
88	0x3ecce14d	0.4001564
89	0xbe0a32d6	-0.13495955
90	0x3ec80ccf	0.39072272
91	0x3da34a26	0.07973127
92	0xbd57a9df	-0.052652236
93	0x3e56bfae	0.20971557
94	0xbf3adaf3	-0.7299034
95	0xbf393b03	-0.7235567
96	0xbf9807c5	-1.1877371
97	0xbd5d79aa	-0.054071106
98	0x3eae729d	0.34071818
99	0x3f85bbd2	1.0447943
100	0x3f48aa5b	0.7838494
101	0xbf060778	-0.52355146
102	0x3f0bb555	0.54573566
103	0x3f72d83a	0.94861186
104	0x3f797ea4	0.97458863
105	0xbdd9214f	-0.10602056
106	0xbf0dbf5f	-0.55370134
107	0xbe508b97	-0.2036575
108	0xbebf8b20	-0.3741083
109	0x3ebf4fd6	0.37365597
110	0xbca897fe	-0.020580288
111	0x3f246c9b	0.6422822
112	0xbf1ae966	-0.6051239
113	0xbe6cdbb4	-0.23130685
114	0xbe9d30df	-0.30701348
115	0x3e5e1302	0.21686938
116	0x3f41c474	0.7569039
117	0x3f260de9	0.64864975
118	0xbeb5b357	-0.35488388
119	0x3e2a9c3f	0.16661166
120	0xbe5137f6	-0.20431504
121	0x3e4cd239	0.20002069
122	0x3ee6de89	0.45091656
123	0x3e2f230c	0.17103213
124	0xbe48bf10	-0.19604135
125	0x3edabb90	0.42721224
126	0x3cd44861	0.02591342
127	0xbd38355f	-0.044972774
128	0x3ee9a6ef	0.45635173
129	0xbf0d7c94	-0.55268216
130	0x3f65eb25	0.8981193
131	0x3db7ae08	0.08968741
132	0xbf0e92a1	-0.5569249
133	0x3f14b04b	0.580815
134	0xbf292935	-0.660785
135	0x3e97244a	0.29519874
136	0xbe028ce3	-0.12749057
137	0xbd8ba242	-0.068180576
138	0x3ba418aa	0.005007823
139	0xbdfe7982	-0.124255195
140	0x3f37c918	0.7179122
141	0x3e718b18	0.23588216
142	0xbedc023a	-0.4297045
143	0xbe9bd91e	-0.30439085
144	0xbeae20a4	-0.34009278
145	0xbecc278d	-0.39873925
146	0x3f160a84	0.58609796
147	0x3e9e926e	0.30971092
148	0x3f14e5dd	0.58163244
149	0x3e26a3c4	0.16273409

bn1.running_var f4 [150]
0	0x3f93d813	1.1550316
1	0x3f9e5685	1.2370154
2	0x40832dbe	4.099334
3	0x3fbb645f	1.4640006
4	0x3f069f5f	0.5258693
5	0x3f3ff504	0.7498324
6	0x3ed5dfb6	0.4177224
7	0x3f2cd179	0.6750713
8	0x3f6cb096	0.9245695
9	0x3f896207	1.073304
10	0x3fe66eac	1.8002524
11	0x3fd1d230	1.6392269
12	0x40850c30	4.1577377
13	0x3f96dd38	1.1786261
14	0x3f119f1b	0.568834
15	0x3ec2ec16	0.38070744
16	0x3fb3b9ca	1.4041073
17	0x3f9c0cf2	1.219145
18	0x40005a75	2.005521
19	0x3ffa50ab	1.9555868
20	0x400f8efc	2.243102
21	0x4002f831	2.0463984
22	0x3f405998	0.7513671
23	0x400fb0f1	2.2451746
24	0x404faf43	3.2450721
25	0x3f216ad9	0.6305366
26	0x3efcfcb3	0.49411544
27	0x3f8ad352	1.084574
28	0x409d9d11	4.925423
29	0x3fa984a1	1.32436
30	0x3f73b849	0.9520307
31	0x3fade32f	1.3584956
32	0x3f2d9d80	0.6781845
33	0x3fd0942d	1.629522
34	0x3f4965b3	0.78670806
35	0x403acf30	2.9188957
36	0x3f070316	0.52739084
37	0x405bc11e	3.433662
38	0x3fc9898a	1.5745099
39	0x3fb7505b	1.4321398
40	0x3fb91537	1.4459599
41	0x3f1ab324	0.60429597
42	0x40f238a5	7.5694146
43	0x3fc2115c	1.5161548
44	0x3f5323c9	0.8247648
45	0x4066639c	3.5998297
46	0x408a308b	4.3184257
47	0x3f0025d6	0.50057733
48	0x4055ee91	3.342686
49	0x3f3bc999	0.7335449
50	0x3e701b23	0.23447852
51	0x40150fad	2.3290818
52	0x3f8f5d6b	1.1200384
53	0x404759b4	3.11485
54	0x3f72fc83	0.9491655
55	0x405a4d12	3.410954
56	0x3eea2acf	0.45735785
57	0x3f835c38	1.0262518
58	0x3ea369c8	0.31916642
59	0x3f796df2	0.9743339
60	0x3f89be50	1.0761204
61	0x3ee341da	0.44386178
62	0x3f82386f	1.0173472
63	0x40261d8b	2.5955532
64	0x3f8c63cc	1.0967956
65	0x40057432	2.085217
66	0x3f7af1b6	0.9802507
67	0x4047578d	3.1147187
68	0x3ff661bf	1.924858
69	0x3f12eec5	0.57395583
70	0x40701fba	3.7519364
71	0x3fd9f0bf	1.7026595
72	0x3fa2dff3	1.2724594
73	0x408eee1e	4.466567
74	0x3f3a84b7	0.72858757
75	0x3f191158	0.5979209
76	0x40a71b82	5.222108
77	0x3ec24ec9	0.37950733
78	0x40016c3b	2.0222309
79	0x40041a5d	2.064109
80	0x3f0c71cd	0.54861146
81	0x3f47530f	0.7786111
82	0x3fd4b5ad	1.6617943
83	0x4024cd52	2.5750318
84	0x3f7dbee3	0.99119395
85	0x3f3ab7ba	0.72936594
86	0x3f3ea74c	0.74474025
87	0x3ebb799d	0.3661622
88	0x3f92af74	1.1459794
89	0x3f7e44d0	0.9932375
90	0x3edc7e01	0.43064883
91	0x3e4c9171	0.19977356
92	0x3fc58f2b	1.5434316
93	0x3f521538	0.8206363
94	0x3f34e77a	0.70665705
95	0x409d6c1f	4.9194484
96	0x3f5bd89e	0.85877407
97	0x3f2cc72b	0.67491406
98	0x3f460eff	0.7736663
99	0x3fec37e8	1.8454561
100	0x3fea0a94	1.8284478
101	0x40656e53	3.5848587
102	0x400c74ea	2.1946359
103	0x3fe0354e	1.7516267
104	0x4062fc85	3.5466626
105	0x3f2fae5b	0.6862542
106	0x3fa65467	1.2994508
107	0x4037eec8	2.873949
108	0x3f6e797d	0.93154126
109	0x3ffd1224	1.9771161
110	0x3fe70d09	1.8050853
111	0x3fb94536	1.4474247
112	0x3f954d06	1.1664131
113	0x3f4b3766	0.79381406
114	0x3eea9ddb	0.4582356
115	0x3e8d3da3	0.27586088
116	0x3f5b9adb	0.85783166
117	0x3f5d0f47	0.86351436
118	0x3faed337	1.3658208
119	0x3f1f9b05	0.62345916
120	0x3fb2ef41	1.3979264
121	0x3f53d223	0.8274252
122	0x3fe05d5c	1.7528491
123	0x3f24bc00	0.64349365
124	0x3ede4c7b	0.43417725
125	0x3ff23588	1.8922586
126	0x3f2592db	0.6467721
127	0x3f57e87b	0.8433911
128	0x3f469bac	0.77581286
129	0x3fa666c0	1.3000107
130	0x400e095b	2.219321
131	0x3fa993f1	1.3248273
132	0x3e9befec	0.30456483
133	0x3fa6a9f6	1.3020618
134	0x409027f7	4.5048785
135	0x3f55f8b9	0.83582646
136	0x40a039fc	5.007078
137	0x3f65202e	0.8950223
138	0x3f92e7d2	1.1476996
139	0x3fd9883b	1.6994699
140	0x40996df7	4.7946734
141	0x3ee3a407	0.4446108
142	0x3f237a50	0.6385851
143	0x40071ce3	2.111138
144	0x40220720	2.5316849
145	0x3f98605f	1.190441
146	0x3f71eadc	0.9449899
147	0x4019b780	2.401825
148	0x3fddbbe1	1.7322961
149	0x3ebd64e4	0.36991036

fc2.weight f4 [150, 154]
0	0x3c6a96a2	0.01431814
1	0xbc7c2787	-0.015390283
2	0xbd220002	-0.03955079
3	0x3dfdc969	0.123919316
4	0x3dd47d21	0.10375429
5	0xbdb38817	-0.087661915
6	0x3a6c045e	0.00090033363
7	0xbde5dae7	-0.11223393
8	0x3ce7c8d3	0.028294003
9	0x3dab11ba	0.083529904
10	0x3de90c56	0.11379306
11	0xbdce37b8	-0.10069221
12	0x3dba0878	0.090836465
13	0xbca278be	-0.019832965
14	0x3e84d9a4	0.25947297
15	0xbd8e16a5	-0.06937913
16	0x3c4a4860	0.012346357
17	0xbba14d76	-0.004922564
18	0xbe5a8aaa	-0.21341959
19	0xbe0db4ab	-0.1383845
20	0xbd5d1d2c	-0.0539829
21	0xbe30466d	-0.17214365
22	0xbcab5733	-0.020915603
23	0xbd1219f5	-0.035669286
24	0xbd62e329	-0.055392418
25	0xbd2bb630	-0.041921794
26	0x3da702e8	0.08154851
27	0x3e0ecdc0	0.13945675
28	0x3e51aae2	0.20475343
29	0x3cb57daa	0.022154648
30	0x3aa2c63e	0.00124187
31	0xbc8286c9	-0.015933411
32	0xbe202335	-0.1563843
33	0x3c0fe703	0.008783105
34	0xbd0695f2	-0.032857843
35	0x3c2a7cec	0.01040576
36	0x3d98a0f8	0.07452577
37	0x3b6860ae	0.0035458016
38	0x3d9d67b8	0.076857984
39	0xbd43938b	-0.04774813
40	0xbcda487e	-0.026645895
41	0xbd2e80c0	-0.042603254
42	0xbd27b018	-0.04093942
43	0xbde80a84	-0.11330131
44	0xbd9da43b	-0.0769734
45	0x3da905b1	0.08253039
46	0xbe2a3e6f	-0.16625379
47	0xbe0416a3	-0.1289926
48	0x3d9c4daa	0.07632001
49	0xbe1bfb41	-0.15232565
50	0xbe5e49d3	-0.21707849
51	0xbb46ad5d	-0.0030315735
52	0xbbd69513	-0.0065485328
53	0xbce0c986	-0.027439844
54	0xbd23d9c3	-0.040002596
55	0xbda45e26	-0.0802577
56	0xbd89b27a	-0.06723495
57	0x3e1e6d6c	0.15471429
58	0xbe269f25	-0.16271646
59	0x3dc01970	0.09379852
60	0x3d024f2e	0.031813793
61	0xbd592527	-0.053013947
62	0x3e156963	0.14590983
63	0x3c9b04cf	0.018923191
64	0xbd67d937	-0.056603637
65	0x3d3a9ac3	0.04555775
66	0xbd7c2e48	-0.061567575
67	0x3d52ec22	0.051494725
68	0x3c696e1b	0.014247443
69	0xbe213ec4	-0.157466
70	0xbd3548d9	-0.044258926
71	0x3dbf0457	0.09327
72	0xbd439411	-0.04774863
73	0x3dc091c3	0.09402802
74	0x3e196047	0.14978133
75	0x3d5212c6	0.051287435
76	0xbd2ab6e3	-0.04167832
77	0x3d1f488a	0.038887538
78	0x3ccbf58d	0.024897361
79	0xbc267a84	-0.010161046
80	0x3bbf1def	0.005832426
81	0x3e2c3c0a	0.16819778
82	0xbccc93e7	-0.02497287
83	0x3c4ca5d4	0.012490708
84	0xbcfe9188	-0.031075254
85	0x3d9c9ee5	0.07647494
86	0x3c7483ea	0.014924029
87	0xbced852b	-0.028994163
88	0xb9eac834	-0.0004478112
89	0xbd241169	-0.040055666
90	0x3d7c646e	0.061619215
91	0x3dcb28f6	0.09919922
92	0x3da6d514	0.0814611
93	0x3d54b08a	0.051926173
94	0xbd808f07	-0.0627728
95	0x3c6f91ff	0.0146222105
96	0x3d74c453	0.059757542
97	0xbdf53df3	-0.119747065
98	0xbdc9b0b5	-0.09848157
99	0xbded3b6b	-0.11583599
100	0xbcf9fa5f	-0.030514894
101	0xbdcb0f2b	-0.099150024
102	0x3d583511	0.052784983
103	0xbd8082da	-0.06274958
104	0xbd897626	-0.06711988
105	0x3e34d4c0	0.17659283
106	0xbc5ce926	-0.013483321
107	0x3ddd5e80	0.1080904
108	0xbdd686f5	-0.1047496
109	0x3b223e53	0.0024756386
110	0xbda63aa0	-0.081166506
111	0xbd1cae9f	-0.03825247
112	0x3e335381	0.17512323
113	0xbcc1dfec	-0.023666345
114	0xbe48662d	-0.19570227
115	0x3d742817	0.059608545
116	0xbe54212d	-0.2071578
117	0xbd40f8d4	-0.0471123
118	0x3c551540	0.013005555
119	0x3d53e4a5	0.051731724
120	0xbdddf2e6	-0.10837345
121	0xbcd4d395	-0.025979796
122	0xbd1c2101	-0.038117412
123	0x3d5d2009	0.05398563
124	0xbdc5458b	-0.09632405
125	0xbdf69dd5	-0.12041823
126	0xbe1245a0	-0.14284372
127	0xbd128007	-0.035766628
128	0xbd2f3c0e	-0.042781882
129	0xbd46fc14	-0.048580244
130	0x3dba6b03	0.09102442
131	0xbe056f08	-0.13030636
132	0x3e543f41	0.20727254
133	0xbc2d4709	-0.010576018
134	0xbd2f6fa4	-0.04283108
135	0x3d8dbc8d	0.06920729
136	0x3d6c2edb	0.057661872
137	0xbd2d295f	-0.042275783
138	0x3dbb6ac0	0.0915122
139	0x3e092bc0	0.13395596
140	0x3d447d53	0.04797108
141	0x3d533290	0.051561892
142	0xbcb5da74	-0.022198893
143	0x3e5b2c97	0.21403728
144	0x3dfb7ffe	0.12280272
145	0xbd09b8a4	-0.033623353
146	0xbce4cc06	-0.027929317
147	0xbded6501	-0.115915306
148	0x3cdf8351	0.027284296
149	0x3de73dbb	0.11291071
150	0x3c33c53d	0.010972318
151	0xbc60cc26	-0.013720548
152	0xbda3f937	-0.08006518
153	0x3db7e711	0.08979619
154	0xbe030e9e	-0.12798545
155	0x3d516328	0.051119953
156	0xbd40614b	-0.046967786
157	0x3dc4ba9c	0.096059054
158	0x3d6f96fd	0.058493603
159	0x3dd827c7	0.10554462
160	0x3d0b71e7	0.034044173
161	0x3b097daf	0.0020979454
162	0xbc7301a7	-0.014831937
163	0xbd4b0200	-0.049562454
164	0xbccd54ed	-0.02506491
165	0x3e0e1534	0.13875276
166	0x3e218c64	0.15776211
167	0x3d52a9a1	0.051431302
168	0x3db87651	0.09006942
169	0x3de6eafc	0.112752885
170	0xbb58e616	-0.0033096126
171	0xbdd77609	-0.1052056
172	0x3ced775f	0.028987585
173	0xba3567e8	-0.0006920085
174	0x3e024811	0.12722804
175	0x3d30b955	0.043145496
176	0x3dd001a7	0.10156565
177	0xbe64063c	-0.22268003
178	0x3c4e2ff0	0.012584671
179	0x3dbd6dc4	0.09249452
180	0x3df160f6	0.11786072
181	0x3e3a29e5	0.18180044
182	0xbc4fa5f0	-0.01267384
183	0x3cc9fe2e	0.024657335
184	0x3cbb353b	0.02285253
185	0xbddaa596	-0.10676114
186	0x3e17b337	0.14814459
187	0x3de1ab37	0.11018985
188	0xbaa58718	-0.0012628762
189	0xbd3b16ba	-0.04567597
190	0x3dc60290	0.096684575
191	0x3d6ed5ec	0.05830948
192	0xbd912968	-0.07087976
193	0xbdddcc5e	-0.108299956
194	0xbcbe0ff0	-0.023200959
195	0xbdd926bf	-0.10603093
196	0xbbcc2d79	-0.0062310067
197	0xbde3ca8b	-0.111226164
198	0xbd459b5a	-0.048243858
199	0xbdb976a6	-0.090558335
200	0x3d329a4f	0.04360419
201	0x3c1d41dc	0.009598222
202	0x3d2d0511	0.04224116
203	0xbd93d25a	-0.07217856
204	0xbc5d7af4	-0.013518084
205	0x3de24fa3	0.11050346
206	0xbd1d0016	-0.03833016
207	0xbda65ce7	-0.081231885
208	0xbe1d3ad6	-0.15354475
209	0x3c437ddd	0.011931864
210	0xbdf5a0f6	-0.119935915
211	0x3e0c7153	0.13715105
212	0x3dd81aec	0.1055201
213	0x3d30aa29	0.043131027
214	0xbcca1daa	-0.024672348
215	0xbca916bb	-0.020640722
216	0x3de0587f	0.10954379
217	0x3cd7d5ea	0.02634712
218	0xbd6bbc29	-0.05755249
219	0x3c325860	0.010885328
220	0xbb76bbe2	-0.0037648608
221	0x3e0abfb4	0.13549691
222	0x3e04b5f1	0.1296003
223	0x3d73350d	0.059376765
224	0x3dd7f14b	0.1054407
225	0x3d8b8eb8	0.06814331
226	0xbd4e26a1	-0.05032981
227	0x3de01fee	0.1094359
228	0x3db45bc7	0.08806568
229	0xbdc40de6	-0.095729634
230	0xbcdc6dc9	-0.026907818
231	0xbde0f4f5	-0.10984222
232	0x3c1cde5c	0.009574499
233	0xbd196d21	-0.03745759
234	0x3c31b834	0.01084714
235	0x3c5fb44a	0.013653824
236	0xbcbd897d	-0.023136849
237	0x3d501ab8	0.05080673
238	0x3c0568d6	0.008142671
239	0xbd268271	-0.040651742
240	0x3d484c35	0.0489008
241	0xbcde3c9b	-0.027128508
242	0x3e16fe1d	0.14745374
243	0x3e0ece9a	0.13946
244	0xbd5e7efa	-0.054320313
245	0x3dc1d04b	0.09463557
246	0x3c910883	0.017704254
247	0x3cf22b20	0.02956158
248	0x3d923777	0.07139485
249	0x3e084ebc	0.13311285
250	0x3e278c29	0.1636206
251	0x3be10e87	0.006868187
252	0xbcd93a63	-0.026517099
253	0x3db8b6f1	0.09019268
254	0xbdd8505e	-0.10562204
255	0xbd1fd1cc	-0.039018437

fc2.bias f4 [150]
0	0x3e6a19d0	0.22861409
1	0x3e92fdef	0.2870936
2	0x3e58ede8	0.21184504
3	0x3d10cbe5	0.0353507
4	0x3e7af961	0.24509193
5	0x3e7e0830	0.24807811
6	0x3e4d7f3e	0.2006807
7	0x3c41e454	0.011834223
8	0xbd0e1eee	-0.034697466
9	0x3e56c702	0.20974353
10	0xbc568549	-0.013093301
11	0x3d7042e8	0.058657557
12	0x3bbb65cd	0.0057189227
13	0x3e21b459	0.15791453
14	0xbd54acd1	-0.051922623
15	0x3e77d26b	0.24201362
16	0xbc8f3390	-0.017480642
17	0x3dba1217	0.090854816
18	0x3e8bae6c	0.2728151
19	0xbd23dd09	-0.040005717
20	0x3e2b4737	0.16726385
21	0x3e2bd3a7	0.16779958
22	0x3e8b81fa	0.27247602
23	0x3e8f30f3	0.27967033
24	0x3e13de0e	0.14440176
25	0x3e2e9965	0.17050703
26	0x3d1af031	0.03782672
27	0x3d8252b8	0.063634336
28	0x3c039b18	0.008032583
29	0x3cfa92d0	0.030587584
30	0xbda230c5	-0.07919458
31	0x3e186e0a	0.14885727
32	0x3e60bc4c	0.2194683
33	0x3e9154fe	0.28385156
34	0x3d8431f9	0.06454844
35	0xbd69039d	-0.05688821
36	0x3dca00a5	0.09863404
37	0x3e773d5d	0.24144502
38	0x3e8f4d6d	0.2798876
39	0x3e9603e1	0.29299834
40	0x3e808823	0.25103864
41	0x3e61c37e	0.2204723
42	0x3b8f1107	0.0043660435
43	0x3e4060a3	0.18786864
44	0xbcbf884a	-0.023380417
45	0xbda9b0a7	-0.08285647
46	0x3e23c7c2	0.1599417
47	0xbc427d20	-0.011870652
48	0x3e6e63de	0.23280284
49	0x3db830f0	0.08993709
50	0x3e832234	0.25612032
51	0x3d755324	0.059893742
52	0xbc2d7085	-0.010585909
53	0x3e923496	0.28555745
54	0xbd1f38d2	-0.038872547
55	0x3c803f0f	0.015655069
56	0x3e91d516	0.28482884
57	0xbd1a354d	-0.037648488
58	0x3aed75fb	0.0018116826
59	0xbd1e3ce3	-0.038632285
60	0x3e9c46c3	0.30522737
61	0xbd6bd4ce	-0.057575993
62	0x3e800a34	0.25007784
63	0xbdc156e5	-0.09440402
64	0xbd8a18e2	-0.06743027
65	0x3e4b949a	0.19880906
66	0x3d2d3c6c	0.04229395
67	0x3e6293b8	0.22126663
68	0x3c619f52	0.013770895
69	0xbd21c2f7	-0.039492574
70	0xbd9bf3c0	-0.07614851
71	0xbd9ce4c8	-0.07660824
72	0x3ea1d1ff	0.31605527
73	0x3d52aa8b	0.051432174
74	0xbdac3596	-0.08408658
75	0x3e937dc4	0.2880689
76	0xbcf480c4	-0.029846556
77	0x3d6499b1	0.055810634
78	0x3e781404	0.24226385
79	0x3ec24a62	0.37947375
80	0x3cef0c32	0.02918062
81	0x3e2f8e5b	0.17144148
82	0x3e2bbbcf	0.16770862
83	0x3e65b59a	0.22432557
84	0x3e8305de	0.25590414
85	0x3e913034	0.2835709
86	0xbb67b6f1	-0.0035356844
87	0xbd130d90	-0.035901606
88	0x3e99ea31	0.30061486
89	0x3dbb571a	0.09147473
90	0x3ea3e037	0.32007
91	0xbcbcbfa9	-0.02304061
92	0xbc5d9917	-0.013525269
93	0x3c75d6fb	0.015004869
94	0x3d12efca	0.035873212
95	0x3e356dca	0.17717662
96	0xbd99868b	-0.07496365
97	0xbda32fc8	-0.07968098
98	0x3e8763d5	0.26443353
99	0x3ea0007f	0.31250378
100	0x3c2fbf33	0.010726738
101	0x3e9d6e6e	0.30748314
102	0x3daa5147	0.08316284
103	0xbd94800b	-0.07250985
104	0x3a6043d5	0.00085550296
105	0xbdadfe2d	-0.08495746
106	0x3e8b15db	0.27165112
107	0x3e785336	0.24250492
108	0xbd17d0ee	-0.037064485
109	0x3e803019	0.25036696
110	0xbcb4ea93	-0.02208451
111	0x3e3b9d0a	0.18321624
112	0x3e536870	0.20645308
113	0xbcb520dc	-0.022110395
114	0x3e86daae	0.26338714
115	0xbdb5b8f5	-0.088731684
116	0x3e74f02d	0.23919745
117	0x3bdd4f37	0.006753828
118	0x3e90ffe1	0.2832022
119	0x3e64b379	0.22334088
120	0x3e711ba2	0.23545697
121	0x3e248215	0.16065247
122	0x3e811075	0.25207868
123	0x3e826da4	0.25474274
124	0xbd895373	-0.0670537
125	0x3e90c24c	0.28273237
126	0x3e9b6ca7	0.30356333
127	0x3d8d90a8	0.069123566
128	0x3e8660d4	0.2624575
129	0x3e355794	0.1770919
130	0x3e9e1ff7	0.30883762
131	0xbc06b4a9	-0.008221784
132	0x3e93a9be	0.2884044
133	0xbdcab6ee	-0.09898172
134	0xbd9d3b47	-0.07677322
135	0x3ddd0edd	0.107938506
136	0xbd50e817	-0.051002588
137	0xbc925fac	-0.017867886
138	0x3e65c508	0.22438443
139	0x3cec7c16	0.028867763
140	0x3e41e186	0.18933687
141	0x3e13afbb	0.14422505
142	0x3d16daaf	0.036829647
143	0x3e865482	0.2623635
144	0xbd35101e	-0.044204824
145	0x3cb9350e	0.022608306
146	0x3d4ebdf1	0.05047411
147	0xbd99f1da	-0.07516833
148	0x3e452837	0.19253622
149	0x3cd94599	0.026522445

fc3.weight f4 [1, 150]
0	0x3db6a00d	0.08917246
1	0x3dceb55a	0.10093184
2	0x3db1b0d9	0.08676309
3	0xbe30e0d2	-0.17273262
4	0x3e0376c3	0.12838273
5	0x3e211384	0.15730101
6	0x3e62ee92	0.2216132
7	0xbe2bf78e	-0.16793653
8	0xbe029c0c	-0.1275484
9	0x3eb8fbe1	0.36129668
10	0xbd851579	-0.06498236
11	0xbe243a63	-0.16037898
12	0xbe032feb	-0.12811248
13	0x3e268e44	0.16265208
14	0xbd96c546	-0.07361846
15	0x3dff4c77	0.124657564
16	0xbdc8aafe	-0.09798239
17	0xbe379e6c	-0.17931527
18	0x3ddc2dd8	0.107509315
19	0xbdc0d04f	-0.09414732
20	0x3e551823	0.20809989
21	0x3e1db361	0.15400459
22	0x3df6038f	0.120123975
23	0x3dc844f1	0.097787745
24	0x3e069b20	0.13145113
25	0x3dd9f74a	0.1064287
26	0xbdb1df0b	-0.0868512
27	0xbe019f89	-0.12658514
28	0xbe4a152f	-0.19734643
29	0xbe30c4ef	-0.17262624
30	0xbeb66666	-0.35625
31	0x3e0807f1	0.1328428
32	0x3dc7e8b0	0.097611785
33	0x3e629a15	0.2212909
34	0xbe2fa358	-0.17152154
35	0xbead7aef	-0.33882853
36	0xbddfe39e	-0.109320864
37	0x3e7b1aaa	0.2452189
38	0x3db1bff6	0.08679192
39	0x3e0851de	0.1331248
40	0x3e85ba85	0.26118866
41	0x3dc67edb	0.096921645
42	0xbe0812e4	-0.13288456
43	0x3ea7203f	0.3264179
44	0xbe091301	-0.13386156
45	0xbd66d072	-0.056351133
46	0x3e06364d	0.13106652
47	0x3e8651c1	0.26234248
48	0x3e077d52	0.132314
49	0x3e37dcf1	0.17955376
50	0x3d947ba9	0.07250149
51	0xbe2d8773	-0.16946201
52	0xbe312189	-0.17297949
53	0x3ddde046	0.108337924
54	0xbdb4b1a2	-0.08822943
55	0xbe30a806	-0.17251596
56	0x3e07d264	0.13263851
57	0xbe0fc08e	-0.14038298
58	0xbe2ac798	-0.16677701
59	0xbdf1f7a6	-0.11814813
60	0x3dfd8d8a	0.12380512
61	0xbda0425a	-0.078251556
62	0x3dfdce3c	0.12392852
63	0xbd5ac9e7	-0.053415205
64	0xbce7c7f6	-0.028293591
65	0x3e7a6158	0.24451196
66	0xbde2108b	-0.110383116
67	0x3de8436c	0.11340985
68	0xbe13f6ad	-0.14449568
69	0xbe0e3f53	-0.13891344
70	0xbd2ae759	-0.041724537
71	0xbda84d61	-0.08217884
72	0x3def2e02	0.11678697
73	0xbe61ac8d	-0.22038479
74	0xbd91d048	-0.071198046
75	0x3e93477c	0.28765476
76	0xbe122c55	-0.14274724
77	0xbdea8087	-0.11450296
78	0x3e1d5f9b	0.15368502
79	0x3e707080	0.23480415
80	0xbde51e7b	-0.11187454
81	0x3e5d7b5d	0.2162909
82	0x3e244abb	0.16044132
83	0x3e81dc75	0.25363508
84	0x3dd2a307	0.10285001
85	0x3ddac7ea	0.10682662
86	0xbd3e71a1	-0.046495084
87	0xbd578927	-0.052621033
88	0x3e4fdcb7	0.2029904
89	0xbe91d46c	-0.28482378
90	0x3e052bed	0.13005038
91	0xbd80e744	-0.062941104
92	0xbe207ab2	-0.15671805
93	0xbdeb89ab	-0.115008675
94	0xbe4db5f2	-0.20088938
95	0x3e0a2fa3	0.13494734
96	0xbd88a5d5	-0.06672255
97	0xbe6dff28	-0.23241866
98	0x3e0ba852	0.13638428
99	0x3e26f668	0.16304934
100	0xbd27fde1	-0.041013602
101	0x3e0d0253	0.13770418
102	0x3dc663ff	0.096870415
103	0xbd8b727d	-0.06808946
104	0xbe3948cd	-0.18094178
105	0xbc99b857	-0.018764658
106	0x3d9d0466	0.076668546
107	0x3e37f9f6	0.17966446
108	0xbdc3903e	-0.095489964
109	0x3e10fdd9	0.14159335
110	0xbdbc2eb9	-0.09188599
111	0x3e512b53	0.20426683
112	0x3e170bf0	0.14750648
113	0xbe41177b	-0.18856613
114	0x3e09bb47	0.13450347
115	0xbd5bafa7	-0.053634312
116	0x3e1ac2e9	0.15113415
117	0xbe6544e8	-0.22389567
118	0x3df52435	0.119697966
119	0x3dbc4c3d	0.09194229
120	0x3dd4b2ed	0.1038569
121	0x3e37012e	0.17871544
122	0x3e168dcc	0.14702529
123	0x3d8e0c5b	0.0693595
124	0xbe597844	-0.21237284
125	0x3e8e7a83	0.27827844
126	0x3e0e13da	0.1387476
127	0xbde08537	-0.10962909
128	0x3d957827	0.07298308
129	0x3dddcd72	0.10830201
130	0x3e14163c	0.14461607
131	0xbda1b8bc	-0.078965634
132	0x3e067361	0.13129951
133	0xbd8c5850	-0.06852782
134	0xbd6b4b38	-0.05744478
135	0x3e5b1b02	0.21397021
136	0xbdbfb13c	-0.09359977
137	0xbe0ac7b6	-0.13552746
138	0x3da7cd52	0.081934586
139	0xbe08efb9	-0.13372697
140	0x3e139dd6	0.14415678
141	0x3e832c59	0.25619772
142	0xbe898468	-0.2685883
143	0x3da886c6	0.08228831
144	0xbe120717	-0.14260517
145	0xbe1bb430	-0.15205455
146	0xbe437bc6	-0.19090185
147	0xbd70eeb7	-0.058821406
148	0x3e1c1dec	0.1524579
149	0xbdfd3ea8	-0.12365466
