checkpoint_actor2.pth (torch_old, 89863 bytes, 18 tensors)

bn1.weight f4 [33]
000000 58 9d 30 3f 82 19 89 3e 6d 9a 03 3f f7 4f bf 3d
       0.6899009 0.26777273 0.5140751 0.09341424
000010 46 9b 07 3d f5 5a 57 3d db 26 cb 3d bb 41 22 3e
       0.033107065 0.052576978 0.099195205 0.15845387
000020 7c 7c 09 3e e2 76 0a 3e df 07 94 3e 1f 15 87 3e
       0.13426393 0.13521913 0.28912255 0.26383302
000030 55 ad a6 3e 01 38 31 3f a5 71 ea 3e b8 66 30 3f
       0.32554117 0.6922608 0.4578983 0.68906736
000040 c3 9e ab 3d a6 76 94 3d b9 db c1 3d f1 6b b7 3d
       0.08379891 0.07249193 0.09465737 0.08956135
000050 c6 d4 19 3e ea d1 ac 3d fc 83 1b 3e d4 68 da 3e
       0.15022573 0.084384754 0.15187067 0.42658103
000060 23 79 c1 3e 32 a4 dd 3e 07 1f 8d 3f 9c 92 45 3f
       0.37787732 0.43289334 1.1025094 0.77176833
000070 4a b9 18 3f 8e 59 4f 3f 32 c2 23 3f 44 6a 79 3f
       0.5965773 0.80996025 0.63968194 0.97427773
000080 62 45 86 3f
       1.0489924

bn1.bias f4 [33]
000000 5a 1f d9 b7 f7 34 98 ba 21 65 59 ba 4e 5f a7 b9
       -2.5883015e-05 -0.0011612464 -0.00082929624 -0.0003192373
000010 64 f1 a4 39 0d 6d 93 ba 79 ad 1b 3a 03 87 1a b9
       0.00031460368 -0.001124771 0.000593863 -0.0001473688
000020 21 9a af 3a 49 3e 6a 3a 58 c4 10 bb 56 93 23 3a
       0.0013397374 0.0008935673 -0.0022089686 0.00062399113
000030 fc 4d ec 37 7d 5e c0 3a 8b e5 15 ba ce ef a8 ba
       2.8169707e-05 0.0014676597 -0.00057181035 -0.001288885
000040 e6 ae 42 ba 30 e5 0c 39 99 bb bc b9 12 10 8e 37
       -0.00074265746 0.0001343682 -0.00035997925 1.6935202e-05
000050 3a 35 c8 b8 17 54 00 b8 a5 cd 80 3a a4 85 1a 3a
       -9.5466574e-05 -3.0595893e-05 0.0009826912 0.0005894548
000060 c9 7d 0c 3b 99 82 be ba 0e e8 8b b8 22 a9 17 3a
       0.0021437278 -0.0014534771 -6.67126e-05 0.00057853956
000070 42 4f 88 3b c9 51 70 ba 60 8b 77 ba 34 5e e0 ba
       0.004159839 -0.00091674604 -0.0009443071 -0.0017117918
000080 bb 2c 53 b9
       -0.00020139191

bn1.running_mean f4 [33]
000000 59 e7 6b 3e 90 10 2c c0 12 71 fe be 19 59 42 3f
       0.23037471 -2.688511 -0.4969564 0.759172
000010 5b 1f 8f 3c e9 d2 19 3b 67 e0 71 bd 17 71 34 3d
       0.017471006 0.002347166 -0.059051897 0.044053163
000020 bf 1b bb 3b 5b 55 12 ba 5f 6d 82 bc 92 ba 67 3b
       0.0057100947 -0.0005582177 -0.015921293 0.0035359007
000030 e5 b4 07 bd 1d 29 30 3e 29 14 43 c0 73 c3 a6 be
       -0.0331315 0.17203183 -3.0481055 -0.3257099
000040 9e a6 bf bc 5d ce 43 3c f0 33 0a bc a7 b2 7d be
       -0.023394879 0.011951056 -0.008435234 -0.24775182
000050 45 34 9c 3e b0 43 c4 3d 5b ee 1d 3e 95 8b 90 bd
       0.30508628 0.09583223 0.15422957 -0.07057873
000060 9a ef 76 bc c5 c7 41 be 97 25 f2 bd fc ff 7f bf
       -0.015071774 -0.18923862 -0.11823576 -0.99999976
000070 e7 fa 1b be 00 00 00 00 fc ff 7f 3f 00 00 00 00
       -0.1523243 0.0 0.99999976 0.0
000080 79 4b c7 3d
       0.09731192

bn1.running_var f4 [33]
000000 21 74 31 40 f5 ab 24 3f 27 cb a2 40 f8 f8 68 3e
       2.772713 0.64324886 5.087299 0.22751224
000010 c1 be 40 3d 08 16 0a 3d a1 a8 e5 3d 93 40 cd 3e
       0.047056917 0.033712417 0.11213804 0.4008833
000020 1b 9a a4 3d d0 8e f0 3d e9 4f 23 40 62 b1 f7 3f
       0.08037206 0.11745989 2.5517523 1.9351008
000030 60 35 3c 40 8c 96 77 41 a7 1c 02 40 03 a5 ad 41
       2.9407578 15.474255 2.0329988 21.705572
000040 c2 fb 03 3e db c9 34 3e bc c0 c1 3d 30 40 09 3f
       0.12889007 0.17655127 0.09460589 0.5361357
000050 8a 51 13 40 c1 5b 09 3f b7 0c 38 3f fb 9b 09 41
       2.3018517 0.5365563 0.718944 8.600581
000060 1d be ce 40 b6 8c 18 41 db e2 fd 41 04 00 00 00
       6.460707 9.534353 31.73577 6e-45
000070 e9 7e ff 41 04 00 00 00 04 00 00 00 04 00 00 00
       31.936968 6e-45 6e-45 6e-45
000080 c6 27 a6 3e
       0.3245222

fc1.weight f4 [150, 33]
000000 12 66 d2 bc fe c6 7f 3d fc 83 59 bc f3 23 9f bb
       -0.025683437 0.062445633 -0.013276096 -0.0048565804
000010 b7 31 89 3d 0d 1a 15 3d 5c ee a1 3d d4 67 8f bd
       0.066989355 0.036401797 0.079067916 -0.070022255
000020 f1 14 2a bc 7a be 2d 3d b0 c3 10 be b5 26 00 bb
       -0.010380969 0.04241798 -0.14137149 -0.0019554321
000030 e0 3c aa bb c2 f4 71 3d 7d 85 b2 3d 2f ca 01 3d
       -0.005195245 0.05907131 0.08716867 0.031686958
000040 ea 00 e2 ba 96 4b 08 3e c5 29 7e 3d 5e e3 84 3c
       -0.0017242704 0.13310084 0.062051553 0.016221698
000050 56 4f 04 3e a6 a8 9d bd ea 34 ab bd f3 1a cd be
       0.1292089 -0.07698183 -0.08359702 -0.40059623
000060 63 53 97 3e ef 9b a6 bc 45 8e 1c bd af ed e0 bd
       0.29555807 -0.020338027 -0.038221616 -0.109828345
000070 b4 49 aa bd 7c 69 b9 3d bc 98 81 3d 04 20 7b bd
       -0.08314839 0.09053323 0.0632796 -0.06130983
000080 db c4 06 be 78 ac 3a be 2b 08 ae ba 5f df 4f 3e
       -0.13161032 -0.18229854 -0.0013277581 0.20300053
000090 55 aa aa bd e6 59 18 be 14 c9 0a 3d 76 0c 51 3d
       -0.083332695 -0.14878044 0.03388317 0.051037274
0000a0 11 74 39 be c1 b1 62 3d ad 6d 9d bd bb 97 ea 3d
       -0.18110682 0.0553453 -0.076869346 0.114547215
0000b0 61 d7 13 3d b2 c6 b8 3d 87 2f ff 3c 9f da 90 3d
       0.036094073 0.09022273 0.031150592 0.07072949
0000c0 9a 05 ba bd 58 68 9c bd d0 32 46 be 59 2a 63 bc
       -0.090831 -0.076370895 -0.19355321 -0.013865077
0000d0 8e a7 cc bd 0c ed 16 be 57 09 1a 3c 50 a4 72 bd
       -0.09992896 -0.14738864 0.009401641 -0.05923873
0000e0 f5 ba f7 bc 56 c3 86 bd e9 66 2a 3e cb c0 78 3c
       -0.030240515 -0.06580226 0.1664082 0.015182684
0000f0 af 30 01 be 8b a5 33 3d 75 ab 4c 3d dd 62 94 bd
       -0.12616228 0.043859046 0.0499682 -0.07245419
000100 ca 63 03 3e 52 e6 77 3e 33 e9 02 be 8a 48 cf bd
       0.12831035 0.24208954 -0.12784271 -0.101212576
000110 b0 f5 ae 3e 25 c9 fc bd b1 f6 8b 3b c3 de 6d bc
       0.3417182 -0.12343053 0.0042713513 -0.014518443
000120 d2 e4 0d 3e 23 32 93 bd 52 d8 f5 3c d1 f5 34 3e
       0.1385682 -0.07187297 0.030010376 0.17671897
000130 48 bf b6 bc a0 e6 08 3e 2a 31 46 3d 68 46 34 be
       -0.022308007 0.13369226 0.04838673 -0.17604983
000140 d6 25 1b 3e be 24 b1 3d 32 97 d6 3d 20 30 96 bd
       0.15151152 0.08649586 0.10478057 -0.07333398
000150 d5 ab b3 3c c4 1d c9 3d 37 7e f5 bd 7a a1 63 bd
       0.021932522 0.098201305 -0.11986964 -0.055573918
000160 55 b7 48 bd b4 b2 4f bd d8 f7 02 3e 37 55 a3 3d
       -0.049002964 -0.050707534 0.12789857 0.07975238
000170 8d e3 49 3e 4c 70 e0 3d d7 eb 3c be c4 c2 37 3e
       0.1971571 0.10958919 -0.18449341 0.17945391
000180 ce 0a 14 be 4c 83 a8 bd 0f ca 32 bd 8f 03 c7 bc
       -0.14457247 -0.08228168 -0.04364973 -0.024293689
000190 94 5b 2a 3d b3 e4 26 be f4 40 6d 3c 78 bb ff 3d
       0.041591242 -0.1629818 0.014480818 0.12486929
0001a0 12 82 15 3c 46 b5 2c bd 34 b8 64 bd 52 6c ca 3d
       0.009125249 -0.042165063 -0.055839732 0.09883942
0001b0 9d d1 3c be 7d d0 3f bd e7 7b 2b bd aa 5e 96 3c
       -0.18439336 -0.04682969 -0.04186621 0.018355686
0001c0 82 27 15 3e 27 d3 8f 3e b8 fc fe 3d b8 e9 0b be
       0.14565852 0.28090784 0.12450546 -0.13663375
0001d0 50 17 cd bd 6a 64 41 bd 28 67 4a 3d 87 d1 4a bc
       -0.10014212 -0.047214903 0.049414784 -0.012379057
0001e0 41 58 52 bd 1f 02 1e bd 3a 2a 2d be 68 d1 97 3e
       -0.051353697 -0.03857624 -0.1691064 0.29651952
0001f0 7e bb ab 3d f2 95 56 be b8 cb c1 bc f5 a3 d0 bd
       0.08385371 -0.20955637 -0.023656711 -0.10187522
000200 40 22 2b 3e 96 3b 13 3e c8 d3 36 be e2 87 ef bc
       0.16712284 0.14378199 -0.17854226 -0.029239599
000210 08 c7 f2 bd 25 5b ae bd 40 37 0e be a4 3e 0a bc
       -0.118543684 -0.08513478 -0.13888264 -0.008437786
000220 45 b1 fc 3c b6 7e c7 3d 6d 40 0d bd e3 10 dc 3d
       0.030846247 0.09740965 -0.03448527 0.107454084
000230 ed 87 a1 bc f8 7c 05 bd b6 1e 93 bd 11 95 f1 bd
       -0.019718135 -0.032589883 -0.07183592 -0.1179601
000240 96 c0 cf 3d f8 21 bb 3d 59 fe 09 bb 9b 3d a4 bd
       0.10144155 0.091373384 -0.0021056144 -0.08019563
000250 2d 1d b6 bd 93 25 86 3c ae 3a b9 3d 2d 18 98 bd
       -0.088922836 0.016375339 0.090443954 -0.07426486
000260 c2 eb 22 be da e3 2d be d0 aa 06 3d 68 a9 a9 3d
       -0.15910247 -0.1698145 0.032877743 0.08284265
000270 a6 95 97 3d b3 a6 3f 3d 85 36 d2 3e e8 1c 2a 3e
       0.0740159 0.046789836 0.4105722 0.1661259
000280 d3 0c 50 3d c4 49 41 3d ec 82 d3 3d 2a b5 ff 3c
       0.05079348 0.04718949 0.10327706 0.031214315
000290 71 a8 b1 bd 7a 49 fc 3d 24 6d 3e 3d 2a 11 fb 3d
       -0.08674706 0.12318702 0.046490803 0.12259133
0002a0 23 2c 5a 3e ae 8c 13 bd 63 cb 52 be a8 7a 6e bd
       0.213059 -0.036022834 -0.20585398 -0.058222443
0002b0 f3 20 f6 bc 5f 2b b2 bd 8b 09 eb 3d 8d 5d 6e 3e
       -0.030045008 -0.08699679 0.114764296 0.23277874
0002c0 25 ac 5f bd c7 95 91 3d 7e 3d c8 3d 77 70 b3 bd
       -0.05460753 0.07108646 0.09777354 -0.08761685
0002d0 4f f8 3d 3e fb 38 43 3e 3e 6a 09 3d 4c 27 90 bd
       0.18551753 0.19064705 0.033548586 -0.07038745
0002e0 7c 99 6e 3d 88 15 47 bd 73 2a c3 bc 31 4f e0 bd
       0.058251843 -0.04860452 -0.023823952 -0.109526046
0002f0 ad fe 90 3e a7 8d fe 3d b4 4c 7d bd 5c 31 eb 3d
       0.28319302 0.12429362 -0.061840728 0.11484024
000300 8c 14 b3 3d b4 a9 a5 bd 04 b8 1f be ce 5c 01 be
       0.087441534 -0.08089009 -0.1559754 -0.12633058
000310 d1 4d ab bd 45 5f 01 be b9 82 5f 3e 39 00 a0 bd
       -0.08364452 -0.12633999 0.2182721 -0.078125425
000320 a3 84 7f bd 1a 72 61 bc 01 f3 37 3e ca 08 19 bd
       -0.06238235 -0.013760114 0.17963792 -0.037361898
000330 2c 4e 88 3c 1a eb 13 bd d6 ed a9 3d 55 52 c7 bd
       0.016638838 -0.036112882 0.08297317 -0.097325005
000340 06 18 4d 3d e2 28 3e bd a2 d6 f4 3c 3a 44 cc be
       0.05007174 -0.046425708 0.029887501 -0.39895803
000350 88 da 49 3d 4a 22 3c 3e 56 42 79 b9 14 48 72 bd
       0.049280673 0.18372455 -0.00023771203 -0.05915077
000360 33 a1 f8 bc 4c 3f 2c 3d 9d e6 2f 3c 3b 9f 51 bd
       -0.030350303 0.042052552 0.010736135 -0.051177245
000370 77 83 62 bd 3c 5b c1 bd c1 33 f7 3c 43 e0 90 3c
       -0.055301156 -0.0944123 0.030176045 0.017685061
000380 87 c8 d6 3d 66 87 03 3e a4 e3 8f bc 4a 35 f3 3c
       0.10487466 0.12844619 -0.017564602 0.029688496
000390 ec 0b 17 3e dc cb 12 3e e0 14 8c 3d 3c 0c 4e 3d
       0.14750642 0.14335579 0.06839919 0.050304636
0003a0 48 32 33 be 86 45 a6 3d 02 88 bd bd e5 42 73 3d
       -0.1749965 0.08118729 -0.09254457 0.059389967
0003b0 60 87 06 3d 65 be 0f be 7d f6 47 bd 64 19 9d bd
       0.032843947 -0.14037473 -0.048819054 -0.076708585
0003c0 1d 82 ef bb 20 48 43 bc 71 9f fe 3b fe d8 c2 3c
       -0.007309212 -0.011919051 0.0077704717 0.02378511
0003d0 64 c1 bb 3d 42 5d 43 3e a9 45 95 be 83 69 86 3c
       0.09167746 0.19078544 -0.2915471 0.016407734
0003e0 33 a2 9f bd 8b 84 83 3b 6d 7a 2d bd 28 cf 01 be
       -0.07794609 0.004013603 -0.042353082 -0.1267668
0003f0 34 eb 9c 3b 6a 53 01 be 03 ea 6a 3d a9 ad f7 3d
       0.0047887806 -0.12629476 0.057352077 0.1209367

fc1.bias f4 [150]
000000 37 57 cc 3d b9 ab cd 3d f4 54 cc 3d da 14 ce 3d
       0.099775724 0.10042519 0.09977141 0.10062571
000010 f1 91 ca 3d 7f 01 cc 3d 1f dd ca 3d 80 11 ca 3d
       0.09891117 0.09961223 0.09905457 0.09866619
000020 a9 f8 ca 3d 90 2e cd 3d 99 81 cc 3d 92 86 cc 3d
       0.099107094 0.10018647 0.09985656 0.09986605
000030 7e 60 cc 3d 3c 19 cc 3d ea 64 cc 3d 41 62 cd 3d
       0.09979342 0.099657506 0.09980185 0.10028506
000040 3a e0 cc 3d 2c f4 cc 3d dd 6a cb 3d 18 de cc 3d
       0.10003705 0.100075096 0.09932492 0.100032985
000050 06 68 cc 3d 0d 7c cb 3d 93 60 cc 3d fc d4 cc 3d
       0.099807784 0.0993577 0.099793576 0.10001561
000060 dd 70 cc 3d cd 80 cc 3d f6 e3 cc 3d 80 42 ce 3d
       0.099824645 0.09985504 0.100044176 0.100712776
000070 dc d9 cb 3d cd 37 cb 3d 02 04 ce 3d c8 85 cc 3d
       0.09953663 0.099227525 0.10059358 0.09986454
000080 8c 70 cd 3d 80 4f cd 3d 39 c3 cd 3d f3 5f ce 3d
       0.10031232 0.10024929 0.100470014 0.100768946
000090 0b 70 cb 3d 46 40 cc 3d bd 3c cc 3d 03 0b cd 3d
       0.0993348 0.09973197 0.099725224 0.10011866
0000a0 a0 ca cc 3d 34 99 ce 3d 78 03 cb 3d b8 d8 cc 3d
       0.09999585 0.10087815 0.09912771 0.10002273
0000b0 90 37 cc 3d aa de cb 3d a0 ef cd 3d f4 ac cc 3d
       0.09971535 0.09954579 0.100554705 0.09993926
0000c0 7f 24 cb 3d ea f2 cb 3d 94 8e cc 3d 17 f6 cd 3d
       0.099190705 0.099584416 0.09988132 0.100567035
0000d0 4c ba cc 3d 11 ff cb 3d 2c 1f ce 3d 6f 3d cc 3d
       0.09996471 0.099607594 0.10064539 0.09972655
0000e0 a0 d6 cd 3d 53 89 cc 3d 20 bc cd 3d 8a 52 ca 3d
       0.10050702 0.0998713 0.100456476 0.09879024
0000f0 08 df ce 3d 60 6d cb 3d 57 c4 cc 3d 15 2c cd 3d
       0.101011336 0.09932971 0.09998386 0.100181736
000100 5a 46 ce 3d 0f e1 cb 3d 18 08 cd 3d 5b 84 cb 3d
       0.10072012 0.09955036 0.100113094 0.09937354
000110 25 87 cd 3d 88 6c cc 3d b7 fb cd 3d c4 14 cd 3d
       0.100355424 0.09981638 0.100577764 0.10013726
000120 ff 1b cc 3d b5 e5 cc 3d f1 b8 ca 3d 7b a0 cd 3d
       0.09966277 0.10004751 0.09898556 0.10040375
000130 31 50 cc 3d 84 59 cd 3d e8 d3 cd 3d bd 71 cb 3d
       0.09976233 0.100268394 0.100501835 0.09933803
000140 06 ee cc 3d 82 6b cd 3d 50 4f cd 3d cb 28 cc 3d
       0.10006337 0.10030271 0.10024893 0.09968718
000150 b6 16 cc 3d f8 2c cf 3d 54 4f cc 3d e0 0e ce 3d
       0.09965269 0.10115999 0.09976068 0.10061431
000160 f1 52 ce 3d 6f 55 cc 3d 1c 8f cd 3d 3b 05 cd 3d
       0.100744136 0.09977233 0.100370616 0.10010763
000170 ae 70 cd 3d f4 04 cb 3d 52 dd cc 3d e3 5f cd 3d
       0.100312576 0.09913054 0.10003151 0.100280546
000180 b3 c1 ca 3d b7 9f cc 3d 3f d5 cc 3d 4e f0 cc 3d
       0.099002264 0.09991401 0.10001611 0.10006772
000190 16 77 cd 3d 0d d4 cc 3d f8 28 cb 3d d8 ad ca 3d
       0.100324795 0.10001383 0.099199235 0.09896439
0001a0 a1 f2 cd 3d 7f eb cd 3d 23 29 cd 3d 31 51 c9 3d
       0.100560434 0.10054683 0.10017612 0.09829939
0001b0 9a 2e cd 3d 80 52 cc 3d 7b dc cd 3d e3 e6 cb 3d
       0.10018654 0.09976673 0.10051819 0.099561475
0001c0 25 6a cc 3d 62 50 cd 3d 78 0c cd 3d fb a2 cb 3d
       0.09981183 0.100250974 0.10012144 0.099431954
0001d0 a4 13 ca 3d fa 2a cd 3d 16 34 cb 3d 2f 14 ce 3d
       0.098670274 0.10017963 0.09922044 0.100624435
0001e0 7a b3 cd 3d f2 2a ce 3d bc 4e cd 3d 35 51 cd 3d
       0.10043998 0.10066785 0.10024783 0.10025255
0001f0 d5 04 cd 3d 23 e3 cc 3d 55 f8 cb 3d 8e 08 cd 3d
       0.10010687 0.100042604 0.09959475 0.10011397
000200 61 ef cb 3d 62 ca cc 3d 94 f5 cd 3d 7b 6d cc 3d
       0.09957767 0.09999539 0.10056606 0.09981819
000210 34 0a cd 3d 4f d4 cc 3d ea 1b cc 3d 69 19 cd 3d
       0.10011712 0.10001432 0.09966262 0.10014612
000220 91 99 cb 3d 0b ed cc 3d d9 02 cb 3d 96 01 cd 3d
       0.099414 0.1000615 0.099126525 0.10010068
000230 1d 76 d1 3d 93 78 ce 3d 9b 26 cc 3d 3e 3d ca 3d
       0.102276064 0.100815915 0.09968301 0.09874962
000240 0e 1f cc 3d 66 0c cc 3d 08 d1 cb 3d b2 ef cc 3d
       0.09966861 0.09963302 0.09951979 0.10006656
000250 f6 13 cb 3d ef 08 cd 3d
       0.099159166 0.100114696

bn2.weight f4 [150]
000000 fe fc 34 3f 56 04 b3 3e 26 e1 b2 3e 14 a7 3f 3f
       0.70698535 0.34964246 0.349374 0.74864316
000010 c1 01 3b 3f c7 30 5f 3f 2a 5f 07 3f 53 c4 14 3f
       0.7304955 0.87183803 0.52879584 0.58112067
000020 2d 09 ab 3e 21 42 9a 3e 9f 7f 5a 3f 80 12 f6 3e
       0.33405438 0.30128577 0.85350984 0.4806099
000030 a6 5b 1d 3f 8f 40 f4 3e 92 5b 64 3e b9 a9 9b 3e
       0.6146797 0.47705504 0.22300556 0.30402926
000040 56 31 4d 3f 6d e8 af 3e 0d 87 b8 3e 50 e5 8d 3e
       0.80153406 0.34357014 0.36040536 0.27714014
000050 d9 2b 45 3f e7 f8 12 3f 8e d8 00 3f 4c 91 95 3e
       0.7702003 0.57411045 0.50330436 0.29212415
000060 ee 19 fb 3e 3b 08 73 3e cf c1 07 3f 4c 72 f1 3e
       0.4904322 0.23733608 0.53030103 0.47157514
000070 05 85 ea 3e 22 e1 0b 3f f5 81 12 3f ca 3e 11 3f
       0.4580461 0.546404 0.5722955 0.56736434
000080 9e 58 b2 3e e0 f0 8a 3e 39 0b c9 3e 32 97 1e 3f
       0.34833235 0.27136898 0.39266375 0.61949456
000090 d1 61 86 3e a4 76 f1 3e 63 a2 aa 3e d6 c7 1a 3f
       0.26246503 0.47160828 0.33327016 0.60461175
0000a0 a1 4b 8b 3e 6f 10 49 3f 55 11 3a 3f 25 2c 8a 3e
       0.27206138 0.785407 0.72682697 0.26986805
0000b0 87 21 08 3f 7b a6 2b 3e c4 ed 19 3f 90 38 5f 3f
       0.5317616 0.16762726 0.60128427 0.8719568
0000c0 b1 c4 d0 3e 25 a9 48 3f 62 c6 f1 3e 92 2d 95 3e
       0.40775064 0.78383094 0.47221667 0.2913633
0000d0 93 8f 23 3f 83 00 3e 3e 40 ef a7 3e 74 a2 3d 3f
       0.6389095 0.18554883 0.3279972 0.7407601
0000e0 1f 46 58 3f b9 85 4f 3f ad 09 00 3f 2c 1e 3c 3f
       0.84481996 0.8106342 0.50014764 0.7348354
0000f0 7a b0 22 3f d5 4b 12 3f 3f 56 1d 3f f8 7b 86 3e
       0.6355053 0.5714696 0.61459726 0.26266456
000100 d5 b4 c6 3e 8d 9b 23 3f cf a7 21 3f 9e bf 51 3f
       0.3880984 0.63909227 0.6314668 0.8193301
000110 fe dc 41 3f f5 69 a1 3e bc e2 2f 3f de dd 0d 3f
       0.7572783 0.3152615 0.68705344 0.5541667
000120 a0 b6 9b 3e f6 ca 88 3e 31 26 38 3f ef cf f9 3e
       0.3041277 0.26717347 0.71933275 0.48791453
000130 04 a5 15 3f 1b bb 55 3f 2f 7a fb 3e 41 53 fc 3e
       0.5845492 0.83488625 0.49116656 0.49282268
000140 25 4b 22 3f 76 72 ff 3e 3b 6b d6 3e 38 b6 31 be
       0.6339591 0.49892014 0.41878685 -0.17354667
000150 fd 38 51 3e 03 52 fa 3e 3e 3b 3d 3f 26 31 79 3e
       0.20431896 0.48890695 0.7391852 0.24335155
000160 15 db ee 3e b6 23 2e 3f c6 e2 03 3f fa c2 00 3f
       0.4665152 0.6802324 0.51517904 0.5029751
000170 39 eb 49 3f b7 9f a2 3e 5c 50 55 3f d6 6f 3e 3f
       0.78874546 0.31762478 0.83325744 0.743894
000180 da 69 59 3f 92 46 58 3f fa aa 00 3f ee f2 5c 3e
       0.8492714 0.8448268 0.5026089 0.21577045
000190 dc ec 79 3e 5a 68 b0 3e ac 37 b6 3e f8 a8 9d 3e
       0.24406761 0.34454614 0.3558935 0.30792975
0001a0 4e c7 56 3f bc 00 2a 3f 15 6d 38 3e 74 3f 0c 3f
       0.83897865 0.6640737 0.18010361 0.5478432
0001b0 b4 53 22 3f 26 02 07 3f ec 29 52 3f 14 c1 2a 3f
       0.6340897 0.52737653 0.8209522 0.66700864
0001c0 3c 80 ea 3d 5e 14 4a 3f f2 81 a8 3e 6c c5 c0 3e
       0.1145024 0.7893733 0.3291164 0.3765062
0001d0 d0 7f 6e 3f fd 37 a7 3e 80 31 01 3f 04 73 17 3f
       0.93163776 0.32659903 0.50466156 0.59159875
0001e0 9f 6b 69 3e e3 2f 6d 3f 0a 73 5f 3f 79 f7 85 3e
       0.2279496 0.92651194 0.8728491 0.2616537
0001f0 ce 5e e3 3e 8a dd 17 3f b8 02 47 3f ac f0 43 3f
       0.44408268 0.59322417 0.77738523 0.7653911
000200 cf b1 3b 3f 12 82 43 3f 71 20 20 3e 75 c4 f6 3e
       0.7331819 0.76370347 0.15637375 0.4819676
000210 9b 7b b0 3e a6 6e bb 3e ad 36 b7 3e 0a ce 83 3e
       0.34469303 0.36607856 0.35783902 0.25743133
000220 bc 89 ca 3e c7 79 1a 3f 04 04 94 3e c0 67 d9 3d
       0.39558208 0.6034207 0.28909314 0.10615492
000230 55 16 4c 3f f9 b5 9b 3e 3c 65 ab 3e 61 ad f5 3e
       0.79721576 0.30412272 0.33475673 0.4798384
000240 3f 83 a8 3e a1 97 63 3e 11 8a fa 3e 55 31 ac 3e
       0.32912633 0.2222581 0.4893346 0.33631387
000250 18 42 80 3e c4 51 17 3f
       0.25050426 0.5910914

bn2.bias f4 [150]
000000 fc 50 9a bd 3c 41 02 be e0 cb 6e bd dc cf a7 bd
       -0.07534978 -0.12720197 -0.0582999 -0.08193943
000010 fc f6 10 be c1 0d 02 3c cf a4 aa bd 3b aa 45 3e
       -0.14156717 0.0079378495 -0.08332216 0.19303219
000020 92 d8 23 3c d9 51 ca 3e 3b 5b 6d be 7f 27 12 bd
       0.010000365 0.3951557 -0.23179333 -0.035682198
000030 dd 10 b1 3d 42 bc c6 3d c6 a0 b4 3d 87 bf 4e be
       0.086457945 0.09703876 0.088197276 -0.2019025
000040 6f 03 09 be 70 f8 c9 3d 11 ab a2 bd 36 16 32 be
       -0.13380216 0.09861839 -0.079427846 -0.17391285
000050 43 3d f3 bd 2a a9 da 3d 2c 76 ff bd 39 2b 29 3d
       -0.11876919 0.10676797 -0.12473711 0.041300986
000060 46 b0 71 bc 5f 59 5c bd 45 0b 88 3e a3 8a fc bd
       -0.0147514995 -0.05379617 0.26571098 -0.1233113
000070 7f 1c 5c 3e b6 7f 72 be 1d d1 2a 3e 6c 77 95 3d
       0.21495245 -0.2368153 0.16681333 0.072981685
000080 5a e5 d8 bd 60 d1 01 3e f0 de e4 bd a5 86 7b bd
       -0.1059062 0.12677526 -0.111753345 -0.061407704
000090 de d4 e7 3d f8 83 17 3d f7 be 94 bd 0d 39 36 3d
       0.11319898 0.03699109 -0.07262986 0.044488
0000a0 00 08 ca 3d a0 1d 90 bd 32 23 a2 3c f6 05 6f 3e
       0.09864807 -0.070369005 0.019792173 0.23342118
0000b0 56 cc 9c bd b2 0c 06 be 66 75 13 3e 1c 9a 7b be
       -0.076561615 -0.1309078 0.14400253 -0.24570507
0000c0 e2 9e 47 bd ab 70 f1 bd 29 63 19 3d 41 25 1f be
       -0.048735507 -0.11789068 0.037448082 -0.15541555
0000d0 b1 8f 3b be 8f 94 ee 3d 0a d5 3f 3e fe 6d e3 be
       -0.18316533 0.11649429 0.18733612 -0.44419855
0000e0 4d a7 ef bd 30 00 0f 3d 0f cc 0d be ee b9 c6 3d
       -0.11701832 0.03491229 -0.13847373 0.09703432
0000f0 08 b9 d5 bd 5a 3b b5 bd c8 5d 01 3d 68 ef 22 bc
       -0.104356825 -0.08849211 0.031583577 -0.009944774
000100 9a fb a3 bd f8 e0 99 3d 20 bb 94 3d cc 55 39 3b
       -0.080069736 0.075136125 0.07262254 0.0028279899
000110 04 0f 14 be 27 71 8a 3d 4b 82 8a bb f9 6f 90 be
       -0.14458853 0.06759863 -0.004226958 -0.28210428
000120 bb 5b 9b 3e 41 eb 76 bd 7e 08 12 be 3a 8a 8a be
       0.30343422 -0.06028295 -0.14261052 -0.27058583
000130 d6 30 f9 3c 0a 1b e3 bc 88 b9 98 bd 69 fa a1 bd
       0.030418795 -0.027722854 -0.07457262 -0.0790909
000140 77 76 96 be cf 1c 87 be fb 32 07 3e 82 7b c2 bd
       -0.29387257 -0.26389167 0.13203041 -0.094962135
000150 53 07 24 be f7 6f f8 39 da b1 43 be 2f fa 24 be
       -0.16018419 0.00047385666 -0.19110814 -0.16111062
000160 15 cd 97 bc 08 33 be ba 46 f8 60 be ae 1a 76 3d
       -0.018530408 -0.0014511058 -0.21969709 0.060084037
000170 c9 b5 81 3c f0 92 e0 b9 d7 d7 c0 3a fd 38 94 bd
       0.015833752 -0.00042834086 0.0014712763 -0.07237432
000180 66 18 bd 3d 39 40 0c 3e bc 08 6d be 77 5e c1 3d
       0.09233169 0.13696374 -0.23147863 0.09441846
000190 9f 11 aa 3d 41 7d 3a 3e 9b 23 92 3d a7 52 1e be
       0.08304142 0.18211843 0.071356975 -0.15461217
0001a0 d2 27 dd 3a 09 fe 2a be 11 10 fa 3e 42 99 14 3d
       0.0016872829 -0.16698469 0.48840383 0.03627897
0001b0 fc df c2 bd 3d da a6 bd 41 e1 45 be 00 7d 2e 3b
       -0.09515378 -0.081470944 -0.19324209 0.0026624799
0001c0 b1 e6 56 3e eb 08 71 bd b0 0c 32 bd ef ab 28 3c
       0.2098644 -0.058846395 -0.04346913 0.010294898
0001d0 82 62 33 bd 13 ed 19 be 9c d6 52 3d b3 34 84 be
       -0.043795116 -0.15031843 0.0514742 -0.25821456
0001e0 60 18 9b bd 85 72 fd bc a7 e7 f5 bd 62 4c e0 bd
       -0.075730085 -0.030938396 -0.12007075 -0.10952069
0001f0 8a 10 71 be 65 b8 8f be 5b d2 7e be 91 dc ab bc
       -0.23541465 -0.2807037 -0.24884932 -0.020979198
000200 51 52 ae 3d 5d af ed bd 6d 6b 90 3e 46 41 f0 3d
       0.08511794 -0.116057135 0.2820696 0.117312
000210 82 ac f7 bd 11 26 47 be 5a 7c 20 bd 35 08 23 3d
       -0.1209345 -0.19448115 -0.03918109 0.03980275
000220 a6 30 96 3e ee d3 79 3c e5 c7 7d be c3 7d 96 3e
       0.2933399 0.015248282 -0.24783285 0.29392824
000230 4c 1d bf bd bb 7e 7c bd 97 84 40 3e 33 17 71 be
       -0.0933176 -0.061644297 0.18800579 -0.23544006
000240 27 57 a3 be b9 01 bb 3b 6e f2 da bc c7 80 73 3e
       -0.3190243 0.0057069925 -0.026726928 0.23779593
000250 32 06 90 3e 26 a3 5b 3e
       0.28129727 0.21448955

bn2.running_mean f4 [150]
000000 29 ca cc 3d 52 02 cc 3d d1 d3 ca 3d 01 50 ce 3d
       0.099994965 0.0996138 0.09903682 0.10073853
000010 e3 f4 cb 3d 2c 9d cb 3d ba 66 c8 3d 6c 4c ce 3d
       0.09958818 0.099420875 0.097852185 0.1007317
000020 5c 55 c9 3d 4c 34 d0 3d df 83 cb 3d 1d 58 cc 3d
       0.09830734 0.10166225 0.09937262 0.09977744
000030 31 37 cb 3d a5 d2 ce 3d fd a1 c9 3d cc e2 d2 3d
       0.09922636 0.10098771 0.0984535 0.10297164
000040 4a 0e d3 3d 44 52 d1 3d 67 f6 c7 3d 52 d5 ce 3d
       0.1030546 0.10220769 0.097637944 0.10099281
000050 d3 85 cc 3d 50 7f cd 3d 21 b6 cd 3d b1 f8 ce 3d
       0.099864624 0.100340486 0.10044504 0.10106028
000060 ea f0 cc 3d 3e bc ca 3d 58 54 ce 3d a1 0b d2 3d
       0.10006888 0.098991856 0.10074681 0.10256124
000070 73 c5 c7 3d ed 80 c7 3d 0b 42 cb 3d a7 38 d0 3d
       0.09754457 0.097413875 0.09924706 0.101670556
000080 15 b4 d0 3d 31 dd cb 3d 27 85 cd 3d 7d 0e d1 3d
       0.10190598 0.09954298 0.100351624 0.102078415
000090 3b c9 c6 3d 75 d3 cc 3d cf 86 cc 3d ca a4 cb 3d
       0.097063504 0.1000127 0.0998665 0.099435404
0000a0 59 e7 c9 3d 14 10 ce 3d 20 73 cb 3d e7 47 cf 3d
       0.09858579 0.100616604 0.09934068 0.10121136
0000b0 5b e0 cc 3d 25 79 c9 3d 90 10 cd 3d 44 00 cb 3d
       0.1000373 0.098375596 0.10012925 0.0991216
0000c0 01 82 ce 3d a1 95 c8 3d 1f a3 c9 3d ec 57 d0 3d
       0.1008339 0.097941644 0.09845566 0.1017302
0000d0 2e 5f cd 3d e1 6d cc 3d ce 47 cf 3d 9e 95 ca 3d
       0.1002792 0.09981895 0.101211175 0.098918185
0000e0 79 23 d2 3d 64 6c cf 3d e5 36 cb 3d 5b b7 c7 3d
       0.10260672 0.10128096 0.0992258 0.09751769
0000f0 4d 24 d1 3d 39 22 ca 3d 40 b3 ca 3d d9 ec cb 3d
       0.10212002 0.09869809 0.098974705 0.099572845
000100 6c b9 ce 3d 38 6e ca 3d cb d2 d1 3d de 60 cb 3d
       0.1009396 0.09884304 0.10245284 0.09930585
000110 b6 ef d0 3d 0e 9f d0 3d 20 3e cf 3d 10 c7 ca 3d
       0.10201971 0.10186587 0.10119271 0.099012494
000120 ac c0 cf 3d 68 80 cf 3d 56 fd c8 3d 72 b0 c7 3d
       0.10144171 0.101319134 0.09813945 0.09750451
000130 7d 1f ca 3d 91 f2 ce 3d 33 38 cd 3d be 9a ce 3d
       0.09869287 0.101048596 0.10020485 0.100881085
000140 71 9e cc 3d 86 a9 d0 3d 23 d9 cb 3d 14 f9 cb 3d
       0.09991158 0.10188584 0.09953525 0.09959617
000150 b6 80 cc 3d 55 17 d2 3d dc c4 ca 3d 89 78 cd 3d
       0.09985487 0.102583565 0.09900829 0.10032756
000160 ad c5 cd 3d 00 a3 cd 3d ba 7b cc 3d 1d 2c cb 3d
       0.10047469 0.100408554 0.099845365 0.09920523
000170 a8 5c d1 3d 25 ca c4 3d 31 67 ce 3d b4 c6 ce 3d
       0.10222751 0.096088685 0.10078276 0.10096493
000180 48 d2 c6 3d c1 22 ce 3d 35 09 ce 3d a0 d9 c8 3d
       0.09708077 0.100652225 0.1006035 0.09807134
000190 3f 86 ce 3d 99 bf d2 3d 92 8f ca 3d 64 3e cb 3d
       0.10084199 0.102904506 0.09890665 0.099240094
0001a0 63 5d cf 3d 58 51 cc 3d 52 c2 ce 3d a0 71 c7 3d
       0.10125234 0.099764526 0.100956574 0.09738469
0001b0 80 f3 ca 3d ef a7 cd 3d f1 f6 cd 3d 67 b6 ca 3d
       0.09909725 0.100417964 0.10056866 0.09898072
0001c0 00 1f cc 3d 59 65 c9 3d 39 aa cb 3d 89 73 c7 3d
       0.0996685 0.09833784 0.09944577 0.097388335
0001d0 44 23 ca 3d 73 0b cd 3d 8f e3 cc 3d 52 ce cc 3d
       0.09870008 0.100119494 0.10004341 0.1000029
0001e0 f8 1b cc 3d b0 85 cc 3d 10 6d cb 3d f4 05 cb 3d
       0.09966272 0.09986436 0.099329114 0.09913245
0001f0 92 2d cb 3d 09 a0 cb 3d 26 7a d1 3d ca 99 ce 3d
       0.09920801 0.09942634 0.10228376 0.10087927
000200 ec 70 cb 3d 88 58 ca 3d 9b 3a ca 3d 73 c0 c8 3d
       0.099336475 0.09880167 0.09874459 0.09802332
000210 02 cb cb 3d 77 65 d2 3d 5a e5 ce 3d c3 1e ce 3d
       0.0995083 0.10273259 0.10102339 0.10064461
000220 17 b9 cb 3d 96 b0 cc 3d fa 58 cb 3d 25 4c d0 3d
       0.099474125 0.099946186 0.0992908 0.101707734
000230 ca 44 d3 3d c5 b1 d0 3d cb ef ca 3d 91 90 c4 3d
       0.10315855 0.10190157 0.09909018 0.09597886
000240 67 c7 d0 3d c4 9e ca 3d 14 af cd 3d ed 5b ce 3d
       0.10194283 0.098935634 0.10043159 0.10076127
000250 5e a4 c8 3d eb 35 cd 3d
       0.097969756 0.1002005

bn2.running_var f4 [150]
000000 4e b6 9a 3d 68 f8 d5 3d 1d 88 51 3d 89 d9 a4 3d
       0.07554303 0.1044777 0.0511552 0.08049304
000010 b7 00 48 3e 83 c4 26 3e 65 d7 96 3c 3c a7 20 3d
       0.19531523 0.16285901 0.018413255 0.039221987
000020 a4 86 05 3e 9a 0d c2 3d b1 01 44 3e a2 0d 4c 3e
       0.13039643 0.094752505 0.1914127 0.19927076
000030 d4 a5 5e 3d ba b0 05 3e 5f 19 20 3e 85 d4 ab 3d
       0.054357365 0.13055697 0.15634678 0.08390144
000040 a2 09 b9 3d 23 71 b1 3d f7 72 14 3e 04 db 56 3e
       0.090350404 0.08664157 0.1449698 0.20981985
000050 bb 42 93 3d 8d 8c 8c 3d 5a 76 d6 3d 1a 50 1c 3e
       0.07190462 0.068627454 0.104717925 0.15264931
000060 c6 61 1b 3e dc 90 29 3e 12 f5 ce 3d 71 8d ba 3d
       0.15174016 0.16559166 0.10105337 0.09109009
000070 4c 62 3e 3e 64 7c bf 3d 0c d7 f5 3d f6 df 80 3e
       0.18592185 0.093498975 0.120039076 0.2517087
000080 eb de f7 3d f8 19 5e 3e 1a a1 4c 3d 30 d2 da 3d
       0.12103065 0.21689594 0.049958326 0.10684621
000090 3f c2 91 3d 68 d9 1a 3e fe cc 03 3e df 5c 6b 3d
       0.071171276 0.15121996 0.12871167 0.057461616
0000a0 d8 2f c2 3d f3 5d db 3d 38 c2 67 3d 5b 32 11 3d
       0.09481782 0.10711279 0.056581706 0.035448413
0000b0 dd 3b 36 3e 29 66 2e 3e d3 52 82 3d d6 ff 16 3e
       0.17796274 0.17031159 0.06363454 0.14746031
0000c0 09 45 46 3d 14 69 79 3e 5f 9e dc 3e 82 54 55 3d
       0.04840568 0.2435649 0.43089578 0.052082546
0000d0 0c c7 73 3e ff 14 1e 3e 62 2f 00 3e 26 79 4a 3e
       0.23806399 0.15437697 0.12518075 0.19772777
0000e0 b9 d9 7b 3e 06 c9 50 3c d9 a6 8c 3d 61 22 1a 3d
       0.24594773 0.01274324 0.06867761 0.037630443
0000f0 71 d3 b8 3d 24 a1 b2 3d f9 54 a2 3d 05 dc cb 3d
       0.09024704 0.087221414 0.079263635 0.09954075
000100 cd a7 36 3e ad 5f ba 3e 76 55 10 3e 13 86 36 3d
       0.17837448 0.3640112 0.14095101 0.044561457
000110 0e 28 42 3e 06 72 09 3d d4 94 48 3d ca 4b 04 3d
       0.18960592 0.033556007 0.04897006 0.03229884
000120 ce 30 32 3d a8 91 4b 3e 25 13 d3 3d ec da 22 3e
       0.043503575 0.19879782 0.10306386 0.15903825
000130 87 fd fe 3c 95 fd 39 3e 9b 91 08 3e 71 0c 94 3d
       0.03112675 0.1816314 0.13336794 0.072289355
000140 e4 e2 cd 3d 4c 5e 3a 3d 47 3b 7c 3e cd b8 45 3e
       0.100530416 0.045500085 0.24631988 0.19308777
000150 92 8d 93 3d 5b bc 09 3e ad 8b 30 3e 5c 4d 77 3d
       0.07204737 0.13450758 0.17240782 0.06037651
000160 72 2b a1 3d 5b fa 26 3d a5 88 85 3d 5a 2a 4b 3e
       0.07869615 0.0407661 0.065202035 0.19840375
000170 d7 f9 15 3e b1 34 94 3d 83 1e 44 3e 15 b7 74 3d
       0.14646088 0.072366126 0.19152264 0.059744913
000180 ef 2e f2 3c e9 47 13 3e d0 b6 04 3e b7 40 ef 3d
       0.029563395 0.143829 0.12960362 0.11682265
000190 37 01 48 3e b3 49 3c 3e 39 b3 9a 3d 22 d3 72 3d
       0.19531713 0.18387489 0.07553715 0.059283383
0001a0 34 00 c7 3d ce a5 ca 3d 8b 5e 36 3d fc 23 dd 3d
       0.097168356 0.09894906 0.044523757 0.10797879
0001b0 69 f5 dd 3d ac e8 a0 3d 2a 17 03 3d 43 e1 82 3d
       0.10837824 0.07856879 0.032004513 0.063906215
0001c0 0d 5a 81 3e c2 ed f6 3d 97 b0 d5 3d 7b c8 0c 3d
       0.25264016 0.120570675 0.104340725 0.03437088
0001d0 55 c5 a1 3d 8d 6f d0 3d 9b ab fd 3d ec 8d 06 3e
       0.07898966 0.101775266 0.12386247 0.13140076
0001e0 e9 29 f7 3d 55 e5 85 3e a5 cd 03 3e 37 7f 3f 3d
       0.120685406 0.2615153 0.12871416 0.04675218
0001f0 f2 27 f5 3d ea f4 bb 3d 13 ff a0 3d 4d 6c 74 3e
       0.119705096 0.09177573 0.078611515 0.23869438
000200 8c 52 ff 3d 8a 6d 59 3e 94 d2 59 3d fa e0 53 3d
       0.124669164 0.21233192 0.05317934 0.051728226
000210 92 e5 9f 3d 84 b3 40 3e d5 ab e0 3d 0f 4c 71 3e
       0.07807459 0.1881848 0.10970274 0.2356417
000220 f5 2b 27 3d 72 5c 97 3d b0 77 10 3e d3 c5 e0 3d
       0.040813405 0.073906794 0.14108157 0.10975232
000230 fd 6a a0 3c 32 cb 30 3e 2d 87 30 3d 99 bd 84 3d
       0.019582266 0.17265013 0.043097664 0.064814754
000240 e5 20 52 3d db c9 9b 3d d8 c1 2f 3d 54 fe 10 3d
       0.051300902 0.0760686 0.042909473 0.035398796
000250 eb 5f 32 3d 3f 8e ae 3d
       0.043548506 0.08523225

fc2.weight f4 [100, 150]
000000 8f 61 ea bd e2 20 03 3e 6c 47 e7 bc 9c 02 99 bc
       -0.11444389 0.12805513 -0.028232299 -0.018678002
000010 62 8f 82 3d e3 36 07 bd da 09 77 bd cc 67 c8 3d
       0.06375004 -0.03301133 -0.06031213 0.09785423
000020 db 48 34 3c 6c dc 95 bc a3 8a 16 3e 68 c4 d7 bd
       0.011003698 -0.018293582 0.14701323 -0.105355084
000030 1e f4 54 bd 12 94 46 3d 8d e9 1d be d2 ec 21 be
       -0.05199062 0.048481055 -0.15421124 -0.15812996
000040 fa a6 d6 bc 52 32 d9 3d 53 38 ed 3d 9a c1 53 3e
       -0.026202668 0.10605301 0.115830086 0.20679322
000050 ea 8a b3 3d 0f d1 24 3e ba 59 9f bc b8 a6 2e 3e
       0.0876673 0.16095375 -0.019451965 0.17055786
000060 b6 b1 1d 3e 94 24 78 3d 86 2d 51 3d a7 1e cb 3d
       0.15399823 0.06058176 0.051068805 0.09917956
000070 6c fd 13 bd 11 60 f7 3c 64 7f ae 3c 0b aa ab 3d
       -0.036130354 0.030197175 0.021300979 0.083820425
000080 d7 4e 36 3e 53 47 a9 3d b6 d7 ac 3d 03 50 eb bd
       0.17803513 0.08265557 0.08439581 -0.114898704
000090 45 ae 4e 3d 64 c1 d9 3d d7 b2 74 bd a2 ed cf bd
       0.050459165 0.106325895 -0.059740867 -0.10152747
0000a0 6a b6 35 3e 5b 2f 96 3d de ca 82 3d 88 5d a9 be
       0.17745367 0.07333251 0.0638635 -0.3307917
0000b0 8f e1 61 3d d0 5e 33 3e 9b 63 9b 3d 42 0a 50 3e
       0.05514675 0.17516637 0.075873576 0.20316413
0000c0 d0 16 b5 3d 61 7f f5 bd 1f e3 de bc 7d 4a 9f 3d
       0.08842242 -0.11987186 -0.02720791 0.077778794
0000d0 83 21 fc 3d dd 1a a6 bd 53 d3 83 bc 70 5c f6 3c
       0.12311079 -0.081105925 -0.016091978 0.030073375
0000e0 74 c1 c0 3d 30 ae 2e 3e 4a 7b a6 3d d3 bf 71 bd
       0.09411898 0.17058635 0.08128984 -0.05902083
0000f0 0c 61 d7 3c 3b 67 1d be 24 88 af 3d 26 65 ce 3c
       0.026291393 -0.1537141 0.08570889 0.025194716
000100 53 9f 4a be 80 a8 04 3e 1b d0 72 bc 3c 9b 70 3d
       -0.1978734 0.12954903 -0.014820124 0.058741793
000110 12 e9 fb bc b0 f3 34 3e 5b f7 ad 3c 84 a0 c3 bb
       -0.030750785 0.17671084 0.021236112 -0.0059700627
000120 9e 49 12 3e 89 32 3f 3e 54 b5 78 3d b7 b5 61 be
       0.14285895 0.18671621 0.060719803 -0.22041975
000130 4d d8 86 bc a1 3b d7 3c 66 a3 fd 3d 2e a7 46 bd
       -0.016460562 0.02627355 0.123846814 -0.04849928
000140 f3 c9 0b be 9c 52 63 bd f0 db e3 bd ba 07 9d 3d
       -0.13651256 -0.055498704 -0.11125934 0.07667489
000150 45 5a 6f be de d2 55 3e 01 74 89 3c 76 51 13 3e
       -0.23374279 0.2088122 0.016778948 0.14386544
000160 dd e5 db 3c 24 b6 5c be 65 24 e2 3d 6d a0 59 bd
       0.026843006 -0.21553856 0.11042098 -0.05313151
000170 ac 4e 49 bc a0 8a 33 bd ca 77 43 bd 32 f3 c8 3d
       -0.012286823 -0.043833375 -0.04772166 0.09812011
000180 48 f3 fd 3d 88 64 24 be 3a 73 30 3d 27 45 80 3d
       0.12399918 -0.16053975 0.04307864 0.0626319
000190 f2 81 5d 3e 9c 5c 02 bc 88 7c 46 be 5b a1 2d bd
       0.21631601 -0.00795665 -0.19383442 -0.04239021
0001a0 c0 59 1b bd 8c 52 ee 3d 51 f7 63 be 38 53 62 bd
       -0.03792739 0.11636838 -0.22262312 -0.055255145
0001b0 84 72 46 3e c3 4e 8a bd 48 36 42 3d 56 15 08 be
       0.19379622 -0.06753304 0.047415048 -0.13289389
0001c0 03 2c 2d bc 43 71 e6 3d 09 f5 e5 3b 64 d1 6e 3d
       -0.010569575 0.11252072 0.007017736 0.05830516
0001d0 20 4f ef bd fa 56 4c 3e 0a b1 56 be 71 0c 81 3c
       -0.11685014 0.19955054 -0.20965973 0.015753003
0001e0 14 db a4 3c b6 7f a6 bd 84 fd 1a be e5 85 da bd
       0.020123996 -0.08129828 -0.15135771 -0.106700696
0001f0 42 5f 64 bd 81 b1 a5 bd af 5f 62 bd ed d1 dd 3d
       -0.055754907 -0.08090497 -0.055267032 0.10831056
000200 fd 33 ba 3d 8b ad 2b bd a3 8e 77 bd a4 31 82 bd
       0.09091947 -0.04191355 -0.060438763 -0.063571244
000210 94 20 04 3e 95 6d c0 bd 40 40 89 bd 9b 6e f0 3d
       0.12903053 -0.09395901 -0.06701708 0.11739846
000220 a1 41 0e 3e a7 c8 2c 3c b8 f0 ff bd d2 e2 fb 3d
       0.13892223 0.010545886 -0.12497085 0.12299122
000230 5f 8e 6c bc b8 3a 78 3c a5 76 db 3d 61 42 2c be
       -0.014438241 0.015150718 0.10715989 -0.16822197
000240 65 50 12 3e f2 e9 c1 bc bf e9 a2 3d fc 1f f2 3c
       0.1428848 -0.023671124 0.0795474 0.029556267
000250 f6 bb cc be 93 95 43 3e 0f 01 43 3c 01 49 64 be
       -0.39987153 0.19100027 0.011902108 -0.22293474
000260 0a d9 a2 bc 64 14 f5 bc 56 ca 12 3e b5 c4 37 3e
       -0.019878883 -0.02991695 0.14334998 0.17946132
000270 ec 0d 61 3e ba 05 42 bd 38 b7 c6 bd 82 a8 9a bd
       0.21977967 -0.047368743 -0.09702915 -0.075516716
000280 35 3e ce 3d 28 10 29 bd e2 98 84 bd 42 80 1b 3e
       0.10070459 -0.041275173 -0.064744726 0.15185645
000290 27 39 a6 3a 37 43 6d 3d 4f f6 5f bc a7 6b ae 3d
       0.0012681828 0.05792543 -0.013669564 0.08516627
0002a0 74 71 b9 bd a9 fd a0 bb 5e 7c 2e 3d d6 02 76 bd
       -0.090548426 -0.004913051 0.042599075 -0.0600613
0002b0 ed 72 cd 3c 6d f8 53 be 1d 16 8e bd 88 0f 8a bd
       0.025079215 -0.20700236 -0.069378115 -0.067412436
0002c0 e9 e8 c5 3d ce 5c 97 bd a5 9a 4c be 37 6f bf 3d
       0.09663565 -0.07390748 -0.19980867 0.093473844
0002d0 11 22 ba bd c3 87 19 3d f9 2a 3d 3e ac 11 83 3e
       -0.09088529 0.037482988 0.18473424 0.2559942
0002e0 64 80 2a be 8c 45 87 bd 82 76 4f be 24 70 02 be
       -0.1665054 -0.06605062 -0.20260051 -0.12738091
0002f0 0f 1b b1 bc 48 5f 4a 3e 10 be 6c 3e a6 f5 16 bd
       -0.021619348 0.1976291 0.23119378 -0.036855362
000300 4d aa 93 3d 4b 5e 1d 3e 47 aa c4 3d 43 85 22 bd
       0.07210217 0.15368001 0.0960279 -0.03967787
000310 d4 0b 15 3c 0e c6 57 bd b2 73 c5 bc 75 78 f0 3d
       0.009097058 -0.052679114 -0.02410302 0.11741725
000320 24 52 5d bd 1c 00 f4 3d fd 55 a9 bc e9 12 0a be
       -0.054033414 0.11914083 -0.020670885 -0.13483776
000330 52 5e 04 3e d6 65 8c 3d 31 03 bb 39 65 82 85 bd
       0.12926605 0.06855361 0.00035669797 -0.065190114
000340 e3 2b 93 3d 5f 06 5e 3c 98 7e ec bd 7d 0a 72 be
       0.07186105 0.013551324 -0.11547583 -0.23636813
000350 a5 c6 79 3d 6d d2 11 be 06 77 0a bc d1 8f 87 3d
       0.060980458 -0.14240427 -0.008451229 0.06619228
000360 e0 f7 8e 3d 20 15 17 bd 9a 1b 81 bb 3b 6e 05 be
       0.06980872 -0.03688538 -0.003940058 -0.13030331
000370 51 d1 18 3d ba 90 1e 3a fe 11 7d bc fc ef 51 be
       0.037308995 0.00060487876 -0.015446184 -0.20501703
000380 79 44 03 be 0a 51 46 3e 2e 1d e1 3d 74 93 90 bd
       -0.12819089 0.19366851 0.10991894 -0.070593745
000390 e3 c2 0e 3e fd 9e 29 3e 14 52 00 bd 17 c5 8f bd
       0.13941531 0.16564555 -0.031328276 -0.07020014
0003a0 f1 7a ce 3d 92 49 56 be c9 a8 17 3e 0c 29 21 be
       0.10082043 -0.20926502 0.1481048 -0.15738314
0003b0 f9 7e 2e 3d 7e 33 78 3d 0e 4c ce 3c 89 fc ae 3c
       0.04260156 0.06059598 0.02518275 0.021360653
0003c0 41 5a 24 be fb 18 1d 3e eb 4f 32 be 47 8e 87 bd
       -0.16050054 0.1534156 -0.17413299 -0.06618934
0003d0 c8 6b 80 3d 91 83 3e 3d f7 ff ec bc 66 eb 3e be
       0.06270558 0.04651219 -0.028930647 -0.18644485
0003e0 5a 9c 28 bd d2 82 2e be 56 19 12 be 0e 1e 8a 3d
       -0.041164733 -0.17042091 -0.14267477 0.06744014
0003f0 e6 35 0b be db 28 16 ba 85 8f f9 3c 7f e7 e7 bd
       -0.1359478 -0.0005728134 0.030463943 -0.11323451

fc2.bias f4 [100]
000000 16 ed cd 3d 4a 68 cc 3d c8 f5 ca 3d cd 84 cc 3d
       0.10054986 0.09980829 0.0991016 0.09986267
000010 d0 e7 cd 3d 16 d2 cc 3d 34 1e cd 3d a2 31 cd 3d
       0.1005398 0.10001008 0.100155264 0.10019232
000020 1b a4 cc 3d 8e fc cb 3d da ba cb 3d ca 46 cd 3d
       0.09992238 0.0996028 0.099477485 0.100232676
000030 3f 2e cc 3d fe f5 cb 3d 4b 8d cc 3d 33 95 cb 3d
       0.09969758 0.09959029 0.09987887 0.09940567
000040 12 ba cd 3d 41 3f cd 3d be be cb 3d a3 1e cd 3d
       0.10045256 0.1002183 0.099484906 0.10015609
000050 ea c8 cb 3d d3 9d cc 3d 2b 6a cc 3d 67 12 cd 3d
       0.09950431 0.0999104 0.099811874 0.100132756
000060 f4 f4 cb 3d f1 14 cc 3d 6c bd cd 3d fc f1 cd 3d
       0.099588305 0.09964932 0.10045895 0.100559205
000070 8c b3 cb 3d f5 1e ce 3d ca 5d cc 3d 52 7a ca 3d
       0.09946355 0.10064498 0.09978826 0.09886612
000080 10 0f ce 3d 7c 53 cd 3d 5d c6 cb 3d 47 e8 cc 3d
       0.10061467 0.10025689 0.09949944 0.10005241
000090 e9 4e d0 3d 6e d1 cb 3d 09 64 cc 3d f6 96 cd 3d
       0.10171301 0.09952055 0.09980018 0.10038559
0000a0 fd 11 cd 3d ba f1 cc 3d 62 33 cc 3d 01 77 ce 3d
       0.100131966 0.10007043 0.09970738 0.10081292
0000b0 60 8c cb 3d fa 14 cd 3d 63 04 cd 3d 6c 8f cc 3d
       0.09938884 0.100137666 0.10010602 0.09988293
0000c0 6d 04 cc 3d 31 9c cd 3d aa 23 cd 3d 91 f1 cb 3d
       0.09961782 0.10039557 0.10016568 0.099581845
0000d0 93 da cd 3d 9d a9 cb 3d 19 2f cc 3d 1f 0f cc 3d
       0.10051455 0.099444605 0.09969921 0.099638216
0000e0 c7 07 cd 3d 40 b5 cd 3d aa c5 cc 3d 3a 70 cc 3d
       0.10011249 0.10044336 0.09998639 0.09982343
0000f0 2f 99 cd 3d 2f b3 cc 3d 69 fd cd 3d b3 74 ce 3d
       0.10038983 0.09995114 0.100581 0.10080852
000100 b7 bc cd 3d 09 2c cb 3d 02 86 cd 3d 2d b1 cc 3d
       0.1004576 0.099205084 0.100353256 0.09994731
000110 d5 a4 cc 3d fe d3 cc 3d 81 76 cd 3d cd f7 cb 3d
       0.09992377 0.10001372 0.100323685 0.099593736
000120 81 d0 cd 3d c3 04 cb 3d 45 68 cb 3d f8 02 cd 3d
       0.100495346 0.099130176 0.09931997 0.10010332
000130 6c 06 cd 3d cd 8d cc 3d 34 6e cc 3d 6b 38 cd 3d
       0.100109905 0.09987984 0.09981957 0.100205265
000140 9b 30 cc 3d 01 0b cf 3d e8 2e ce 3d 0a fc cd 3d
       0.09970208 0.10109521 0.100675404 0.10057838
000150 ad 56 cd 3d 3a da cc 3d d1 59 cd 3d 52 cb cd 3d
       0.10026298 0.10002561 0.10026897 0.10048546
000160 55 5f cc 3d 8d be cb 3d 78 2f cd 3d d0 3b cd 3d
       0.09979121 0.09948454 0.100188196 0.10021174
000170 bd df cb 3d d5 86 cc 3d d9 31 cd 3d 30 44 cd 3d
       0.09954784 0.09986655 0.10019273 0.10022771
000180 67 92 cd 3d 15 47 cd 3d 05 e8 cc 3d 6a d9 cc 3d
       0.1003769 0.100233234 0.10005192 0.10002406

bn3.weight f4 [100]
000000 83 6d 97 3f e9 69 c8 3f 8b 19 89 3f 08 6d 9e 3f
       1.1830295 1.5657321 1.071092 1.2377024
000010 72 14 c8 3f 2d 60 b7 3f 3a e5 be 3f 89 17 5c 3f
       1.563124 1.4326226 1.4913704 0.8597341
000020 42 e2 a7 3f af f4 52 bf a0 6e 7f 3f 86 06 6d 3f
       1.3115923 -0.8240461 0.99778175 0.9258808
000030 cc 27 b5 3f 72 13 61 3f b0 47 8d 3f 5b 84 cb 3f
       1.415277 0.87920296 1.1037502 1.5899767
000040 c6 ef 87 3f 6a 71 84 3f f3 98 7b 3f 42 c5 bc 3f
       1.0620048 1.0347111 0.98280257 1.4747698
000050 d6 07 6f 3f b2 5d b4 3f f4 58 d1 3f d0 22 a8 3f
       0.9337133 1.4091094 1.6355271 1.3135624
000060 23 db a1 3f 1e de 96 3f 35 37 b0 3f 70 6e b2 3f
       1.2645 1.1786535 1.3766848 1.3939953
000070 fa bd 8a 3f 69 cd ba 3f f2 40 ad 3f 4e 72 9e 3f
       1.0839226 1.4593936 1.3535445 1.2378633
000080 83 7b c0 3f 0e a0 b4 3f 4e af 73 3f 98 ed a5 3f
       1.5037693 1.4111345 0.9518937 1.2963133
000090 5d 9f b0 3f 65 00 a3 3f 37 03 73 3f f7 45 7a 3f
       1.3798634 1.2734495 0.9492678 0.9776301
0000a0 a3 15 b9 3f 57 15 41 3f e0 72 bc 3f 6d c7 77 3f
       1.4459728 0.75423187 1.4722557 0.96788675
0000b0 d4 bf 9c 3f e2 e3 ac 3f 62 af aa 3f 99 67 92 3f
       1.2246041 1.3507044 1.3334773 1.1437865
0000c0 16 a9 6c 3f 72 63 cb 3f 3b 6e 87 3f a4 78 9c 3f
       0.92445505 1.5889723 1.0580515 1.2224317
0000d0 56 4e be 3f c4 26 99 3f 12 92 d5 3f 5d 75 86 3f
       1.4867656 1.1964955 1.6685202 1.0504566
0000e0 16 90 a3 3f e6 1c 50 3f 32 c5 a9 3f 1f 33 a1 3f
       1.2778347 0.81294096 1.3263304 1.2593726
0000f0 68 f7 58 3f 56 b4 93 3f 5b 42 c1 3f ee e2 ba 3f
       0.8475251 1.1539409 1.5098375 1.4600503
000100 36 b3 83 3f 51 90 a0 3f 3a 8d 59 3f 49 85 d9 3f
       1.0289066 1.2544042 0.8498112 1.69938
000110 e2 89 c8 3f 1a 82 b5 3f 2f 1c 6d 3f 72 a7 56 3f
       1.5667078 1.4180329 0.9262113 0.8384925
000120 f0 ca 93 3f 27 73 c6 3f ba 9e 82 3f 44 fb 88 3f
       1.1546307 1.5503892 1.020469 1.070168
000130 cf 43 72 3f 65 80 a5 3f 1c 16 c8 3f d1 8b a0 3f
       0.9463472 1.2929808 1.5631747 1.2542669
000140 a8 57 88 3f 3a c9 b5 3f 5f 36 7d 3f 3a 3e a5 3f
       1.065175 1.4202034 0.9891109 1.2909615
000150 10 f3 8e 3f 37 04 b1 3f f3 21 62 3f 87 5a c9 3f
       1.1167927 1.3829411 0.8833305 1.5730752
000160 a2 d0 99 3f 02 52 a0 3f 08 aa 9c 3f 42 42 ca 3f
       1.2016795 1.2525027 1.223939 1.580147
000170 97 5c 64 3f e6 c9 65 3f f5 33 62 3f 82 2b a8 3f
       0.8920378 0.897612 0.8836053 1.3138278
000180 d7 a4 7a 3f 67 4e 80 3f fc fc 7c 3f 34 60 a2 3f
       0.97907776 1.0023926 0.98823524 1.2685609

bn3.bias f4 [100]
000000 c4 09 f5 3c dc b1 e1 bd 06 9a 83 bd 56 e9 59 3d
       0.029911883 -0.11020252 -0.06425862 0.053201042
000010 00 13 0c 3e 9a e4 a0 3c b8 76 59 be 75 b6 95 bc
       0.13679123 0.019640256 -0.21236694 -0.018275479
000020 e7 cb be 3d 66 37 53 bd b4 3a 17 be 48 2e 58 be
       0.09316235 -0.051566504 -0.14768487 -0.21111405
000030 d3 2d f6 bd ae c4 88 3e a7 17 48 3d 3d f3 b9 3d
       -0.12020459 0.26712555 0.04885068 0.09079597
000040 7c 2e 91 bd 5d 0b 56 3d ac e8 7a be bf cc 99 3d
       -0.07088944 0.05225693 -0.2450282 0.07509755
000050 ff e0 d8 bd 76 37 cf bd c7 13 ce 3e 17 62 99 bd
       -0.105897896 -0.10118 0.40249464 -0.07489412
000060 a8 be 6c 3d b7 dd 13 3e af 3d 2d be 7d 7d b1 bd
       0.05779901 0.14440046 -0.16918062 -0.08666513
000070 0f 03 e5 bd a2 07 9c 3d cc 27 db bd 6b 92 e4 bd
       -0.11182224 0.07618643 -0.1070095 -0.111607395
000080 10 ed cf 3d 1a a9 25 be a0 92 ec 36 1f cb c0 3d
       0.10152638 -0.16177788 7.0504175e-06 0.09413742
000090 3a 2b 0e bd e0 4e f0 3b db fc 80 bd 59 39 8d 3d
       -0.034709193 0.0073336214 -0.06298228 0.06895704
0000a0 ae 7f 3f bd 3e e8 11 be 49 9b 41 3e 3f 33 0c 3d
       -0.046752624 -0.1424875 0.18906893 0.03422856
0000b0 b5 b5 00 bd a0 f4 ff 3c 41 2a 05 be 80 36 50 3d
       -0.03142329 0.031244576 -0.130044 0.050833225
0000c0 86 2c 62 bd fd 4f e4 3d f8 ad e8 3c a6 28 36 3d
       -0.055218242 0.11148069 0.028403267 0.04447236
0000d0 07 53 4c bd 2f 4d c0 bd c7 31 06 3d 0d 6c f1 3d
       -0.04988387 -0.093897216 0.032762315 0.11788187
0000e0 55 39 8d bd 70 fa c2 bd 4f 24 08 3e 8b 98 1a 3e
       -0.06895701 -0.095204234 0.132951 0.15097253
0000f0 00 ad a7 3d 7f c6 45 3e 23 df f8 3c f2 61 0e 3e
       0.08187294 0.19314002 0.030379837 0.1390455
000100 02 2a 2d bd 28 00 36 be 1b 6c 9b bd 82 7b 41 3e
       -0.04227639 -0.17773497 -0.07588979 0.1889477
000110 ee 00 62 3d c7 77 da bd 73 ec 75 3a 50 01 2d 3c
       0.055176668 -0.10667377 0.0009381242 0.010559395
000120 91 24 3b bd 28 06 5d be f5 f6 a7 3d d8 2e 2b be
       -0.04568917 -0.2158438 0.082014 -0.16717088
000130 a0 c6 98 bd e5 04 c8 bc 47 69 1d 3e 2f 9c 95 bd
       -0.0745976 -0.024416396 0.15372191 -0.0730518
000140 a8 51 bc bd 63 cf 65 bd 58 47 a6 3d 2d 0e 96 3d
       -0.09195262 -0.056105983 0.081190765 0.073269226
000150 a5 be a7 3d 30 d5 4e bc 4e 5c 3a 3e da 67 2b 3d
       0.081906594 -0.01262407 0.18199274 0.041847087
000160 9a 5a 91 bb e7 cb eb bd 0b 52 2a 3e c8 98 fd bd
       -0.0044358494 -0.11513501 0.1663286 -0.12382656
000170 b4 f6 00 bd 34 a9 d1 bc f4 a0 07 3d 2a d0 fb bc
       -0.031485274 -0.025593378 0.03311248 -0.030738909
000180 c5 02 db 3d 9d 7c 39 bd ce 0b 5b 3d 53 d5 86 3d
       0.106938876 -0.045284856 0.053478055 0.06583657

bn3.running_mean f4 [100]
000000 2c ce b0 3e 21 d8 2a 3e 10 e6 25 3f f6 30 9e be
       0.34532297 0.16684009 0.6480417 -0.3089673
000010 ab 68 7d be 8b 56 0e 3e 92 d3 41 3e fb b2 8c 3e
       -0.24746959 0.13900201 0.18928364 0.274803
000020 76 56 38 3f 1c 61 60 bd 8a 13 11 3f 14 d4 0f 3d
       0.7200693 -0.05478011 0.5667044 0.035114363
000030 dc 86 5e 3e f0 19 0a bf 48 69 06 3f 6d a2 0d 3f
       0.21731132 -0.5394583 0.52504396 0.5532597
000040 47 0c 0a 3f 48 fb da 3e b5 fa 6c 3e 44 4f 82 bd
       0.53924984 0.42769837 0.23142512 -0.06362775
000050 3e f7 0c bd cb 1b ca 3e cc 21 a7 be b2 c3 f9 bb
       -0.034415476 0.3947433 -0.32642972 -0.0076222057
000060 79 4c 52 be 18 2e 0c 3f 67 9a c5 3d f2 ac 2d bc
       -0.20536985 0.54757833 0.096485905 -0.010600315
000070 17 a4 3f be b9 ca 02 3f 80 e7 0e 3f 1f 9e 51 3f
       -0.18714939 0.5109058 0.5582199 0.818819
000080 53 96 7b 3d 08 d7 98 3e f0 38 1f 3f b8 25 87 3d
       0.061422657 0.29851556 0.62196255 0.06598991
000090 9b 6a 1b 3f 9f 85 18 be 4f f4 de 3e d9 a6 95 3e
       0.6070954 -0.14894722 0.43545768 0.29228857
0000a0 a7 f5 93 bc a8 78 48 3d f1 5f 4d bd 22 94 ff 3e
       -0.018061472 0.04894319 -0.050140325 0.49917704
0000b0 d1 48 19 3f f6 62 16 3f b1 45 da 3d 5b bc bc bd
       0.59876734 0.5874475 0.10657824 -0.092156135
0000c0 34 83 23 be d1 2b 95 3e d9 81 97 3e 1b 52 be 3e
       -0.15968019 0.29134992 0.29591253 0.37172017
0000d0 d5 e1 97 bc 04 e8 58 3f bf 73 18 3e 0c db db 3e
       -0.018540302 0.8472903 0.14887904 0.42940557
0000e0 95 9e 74 be a9 0e 0e 3f c2 3e 51 bd fd 70 9f 3e
       -0.23888619 0.5549112 -0.05108524 0.3114089
0000f0 bb 67 95 3e c9 e7 df 3e 7b 9e b4 be d4 ce 43 bb
       0.29180703 0.43731526 -0.3527716 -0.0029877918
000100 59 31 a3 be 97 67 3a 3e 87 d8 07 bf 93 98 9a bc
       -0.31873587 0.18203579 -0.5306477 -0.018871581
000110 da e0 17 be 97 cb 4d 3f 90 31 dc 3e 6c 20 ae bd
       -0.14831868 0.8038878 0.43006563 -0.08502278
000120 56 71 4a 3b 0e 50 0f 3f 4d 87 04 bf 66 42 93 3b
       0.0030890307 0.5598153 -0.5176895 0.0044939993
000130 2d f2 85 3d c6 b2 ae bd 33 e4 46 3e fd 34 9e 3d
       0.06540332 -0.08530192 0.19422989 0.077249505
000140 29 4f 5c be 8e 64 b6 3e 22 bf 41 3e da d7 90 3d
       -0.21514572 0.35623592 0.18920568 0.070724204
000150 ba 22 de 3e 89 f7 bb 3e 39 40 94 bd 49 eb 30 be
       0.4338587 0.36712292 -0.07238812 -0.17277254
000160 08 e9 70 3f 1f a4 b6 3e 34 61 8c 3e bc f6 9b 3e
       0.9410558 0.3567209 0.2741791 0.3046168
000170 b4 c1 fd 3e 46 2f 64 be 65 57 94 3e 03 1a 2a be
       0.49561846 -0.22283658 0.28972927 -0.16611485
000180 96 2e 44 be a9 0d 02 be 58 3f f4 3e 30 96 63 bd
       -0.19158396 -0.12700523 0.47704577 -0.05556315
